critic_checkpoint.pth (torch_old, 394636 bytes, 9 tensors)

fc_state_0.weight f4 [200, 33]
00000000: 3877 eb3d 5cdb e6bd 318b 87be 79ce 6c3e
00000010: 1315 94be 3ed9 93bd 3eef 14bd ab55 c23d
00000020: 8ab0 a83d e782 29bd 07af da3c 4eeb 143d
00000030: cfce e1bd 2a81 77bd f81e 153d 20e0 903e
00000040: 0dec 38bd f049 3fbe ee8d b83e 8568 82bd
00000050: f3dc debb fa96 d43c a214 64bd 04ee 8bbd
00000060: 7ad7 0bbc 70ef 6c3b 23b1 c5bd abce 303e
00000070: 0546 72be 100b a0bc c72c 15be c018 f9bc
00000080: 08ea 003f 5eeb f5bc 15af 613e 5128 28be
00000090: 95fe aa3e a957 ebbe 1e6b 063e be97 9dbe
000000a0: 9174 3d3e 7f66 86be d3e6 113e 62a7 cdbd
000000b0: 5ca5 c1bd 3389 233d 6c3d 06be 0efb 07bc
000000c0: 6205 e03d 8694 e5bd fa25 d53c f441 30be
000000d0: 9e5b 1c3f 4dc4 0fbd 07f3 06be c717 70bd
000000e0: 14b8 cbbc 1f9f 843b bacc 02be c91f f33c
000000f0: 1b34 893e 86e2 8ebd 2891 c8bc c072 5fbe
00000100: a891 c23d 8aaf ec3e 354c c93d b3a1 b03d
00000110: 0893 55be 6c5b 8f3e 660c bebe 7f28 bb3d
00000120: ada2 443e d57a 26bc 82b1 31be 86a1 0f3e
00000130: b925 24bd c31d f33c 1c50 4c3c 1d3e 66be
00000140: b335 40bd 4dd2 5d3c 40e6 7cbe d771 913e
00000150: 22fb 0abe 8658 6f3e 9424 753d cc97 b7bd
00000160: 480a 183c 27fd a4bd 2405 5dbb 442a 7d3d
00000170: 3b27 463e f7df 303e 87ae 94bd 6282 2a3e
00000180: 5d90 6ebe 59dc 21be 721f 9fbe 0a3f 32be
00000190: 0c5f 713e 8c5e aebd ecc9 c33d 3fd8 94be
000001a0: 9ee7 683e def2 dc3d 7cf1 6a3e 2975 9d3e
000001b0: 4e19 e2bd d931 213e 3f96 8b3d 3fdc 33be
000001c0: da82 2d3e 0ef9 fa3d 46cb 72be 04fc ff3d
000001d0: 83ac 8c3e 8129 313d 6bdc f63d 83f9 ae3c
000001e0: fb1a d73d 0450 e0bd 9c6e ae3c 72cf a4bc
000001f0: 5bae 30bd d8a7 733d eb0b 7d3d 280d 823e
00000200: a2f8 15be 90cf 8dbd 4c9c babd 9ce1 9cbc
00000210: 567c 9abd 87a1 dc3d 814c acbd efb7 a1bd
00000220: 963d 023e 7840 873d 7ec9 503d 0f28 91bc
00000230: a12f 503e 3ff6 b0be 67c9 e7bd 6f79 9c3d
00000240: 9a6c babd 1cff 4c3e 9064 35bd 732c 09be
00000250: 4ce2 663e 403f 80bd e4d2 d3bd 2f88 353e
00000260: df6f e5bc 7fdb 23bd efa2 573d 38dc 93bd
00000270: 4931 843d fb3a 31be e512 9abd 9647 8b3e
00000280: 9326 a3bc 5612 fcbd 2401 44be 74a5 0fbe
00000290: 0d4a efbe 9e25 413e 103f 59bd 9fd2 083e
000002a0: e6f0 c3be d726 4fbe f213 96be a76f 5bbe
000002b0: d1ad c63d 513f 87be ff1d 0c3e 61cf 0fbc
000002c0: 9ba5 83bd 8020 fc3d b44f 603a 9ecb ca3c
000002d0: 6a0a 74be a80e 20be e06b bebe b2d8 eb3e
000002e0: caff d33e c673 d7bc 4c0e 59bd 08cd 8a3b
000002f0: dbf3 163e c2f4 933d 928f 453d 2429 a4bd
00000300: a7f2 793e 06ec 4d3d c02a 32bb 7ea6 2cbd
00000310: 36fc 253e 2210 273f 4c7b c9bc 23d3 3b3e
00000320: 2b1b 9fbc d70c 21bc c3d2 77be 409f 38be
00000330: d3dc 753c b074 973d da27 233e 207d 4f3c
00000340: 5f37 bebc 3c68 1f3c 916b 6fbd 3b37 c03d
00000350: 47f4 19bc d33a 9bbc 3a2e 2dbc ed71 dc3d
00000360: 8ca1 14bd 78e6 82be 5c91 80bd ae58 e4bc
00000370: 17d0 7fbd f7af 383d e0c3 01bd 5d0f d3bd
00000380: a9a9 8abd 06d5 17be 40e9 25be 70f8 c13c
00000390: b864 dfbd ce48 78bd 56ae bd3f e7bb 6dbe
000003a0: 9cde b9bd dc39 eebd 729b 22be 1154 b6be
000003b0: 437f 18bd 8f84 15be b41c 233e 7d9f d03d
000003c0: 9c4d 1f3e 7c18 9c3d 5002 17bd dff6 dbbc
000003d0: 58a8 893e 0c0e 0b3e 9093 cfbd caaa b33d
000003e0: f9a9 673d d9ee 2cbe 38ef 8cbc 1ee2 09bd
000003f0: 12d7 98bd 4332 243e 941c 0e3d 656e 963d
0.114973485 -0.11272308 -0.26473382 0.23125638 -0.28922328 -0.0721917 -0.03636097 0.09488996
0.08236797 -0.041384604 0.026694788 0.036357217 -0.11025774 -0.060425915 0.036406487 0.28295994
-0.04514699 -0.18680549 0.36045784 -0.06367592 -0.0068012415 0.025950897 -0.05568374 -0.06832507
-0.00853526 0.0036153458 -0.09652927 0.17266338 -0.23659523 -0.019536525 -0.14567862 -0.03040731
0.50357103 -0.030019458 0.22039445 -0.1642163 0.33397356 -0.45965317 0.131268 -0.30779833
0.18501498 -0.26250073 0.14248209 -0.10041691 -0.09455368 0.039925765 -0.13109368 -0.008299602
0.10938527 -0.11209969 0.026019085 -0.17212659 0.61077297 -0.035099316 -0.13178645 -0.058616426
-0.024868049 0.004047289 -0.1277341 0.029678242 0.26797566 -0.069768 -0.024483278 -0.21821117
0.09500438 0.46227676 0.098289885 0.08624592 -0.20856869 0.27999437 -0.37118834 0.091385834
0.19202681 -0.010161121 -0.1735287 0.1402646 -0.040075038 0.029677277 0.012470271 -0.22484632
-0.04692621 0.013538909 -0.24697208 0.28407165 -0.13572362 0.23373613 0.059849337 -0.089645
0.009279795 -0.080560975 -0.0033724988 0.061807886 0.19350903 0.17272936 -0.07259851 0.166513
-0.23297258 -0.15806712 -0.31078678 -0.1740686 0.23571414 -0.08514127 0.09559998 -0.29071233
0.22744605 0.10788511 0.22943681 0.3075345 -0.11039983 0.15741672 0.068157665 -0.17564486
0.16944447 0.12254535 -0.23710355 0.1249924 0.27475366 0.04325247 0.1205376 0.02135921
0.10503193 -0.10952762 0.021292977 -0.020118449 -0.04313503 0.05948624 0.061778944 0.25400662
-0.14645627 -0.06924355 -0.091118425 -0.019150548 -0.075432464 0.107729964 -0.084130295 -0.07896411
0.12718806 0.06604093 0.050973408 -0.017719297 0.20330669 -0.3456287 -0.11317711 0.07640349
-0.09102745 0.20019192 -0.044285357 -0.13395862 0.22547263 -0.06262064 -0.103429586 0.17727731
-0.028007446 -0.04000425 0.05264562 -0.07219738 0.06454713 -0.17307656 -0.07523135 0.27203053
-0.019915855 -0.12308185 -0.1914106 -0.14027959 -0.46736184 0.18862006 -0.053038657 0.13361596
-0.38269728 -0.2022966 -0.29312092 -0.2142931 0.097011216 -0.26415494 0.13683318 -0.00877747
-0.06428071 0.123108864 0.00085567986 0.024755295 -0.23832098 -0.15630591 -0.37191677 0.46063763
0.4140609 -0.026300322 -0.05299215 0.0042358674 0.14741461 0.07224418 0.048232622 -0.080156595
0.24408971 0.050273918 -0.0027186126 -0.042150967 0.16209492 0.6525899 -0.024594925 0.18342261
-0.019422134 -0.009829721 -0.24201493 -0.18029499 0.015006262 0.07395303 0.15933171 0.0126641095
-0.023219762 0.009729441 -0.058452193 0.093855344 -0.009396619 -0.018948948 -0.010570103 0.10763917
-0.036286876 -0.2556646 -0.06277725 -0.027874317 -0.06245431 0.04508969 -0.03168094 -0.10305665
-0.06770641 -0.14827356 -0.16202259 0.023678035 -0.109078825 -0.060616307 1.4818828 -0.2321621
-0.090756625 -0.116321295 -0.1587961 -0.35611013 -0.03723074 -0.14601348 0.15928918 0.1018667
0.1555695 0.076218575 -0.03686744 -0.026851116 0.2688625 0.13579577 -0.10135567 0.0877281
0.056558583 -0.16887988 -0.017203912 -0.033662908 -0.074628964 0.16034798 0.034695223 0.07345275

fc_state_0.bias f4 [200]
00000000: cb12 50be 3ccf 083d c6a6 bdbb eb8d 30be
00000010: c332 ebbc 6f33 87bc b554 0ebd c924 193d
00000020: 14bd 25be e986 5a3d 041b a5bd 85ee 20be
00000030: 04a8 b7bd 7561 07be ac28 133e 86b5 8bbd
00000040: ec9e 3cbe 29de f53c 8698 3abe 6b59 a83d
00000050: b8a3 5fbe 0fe2 22be fb72 0fbd e98d 9fbe
00000060: 3cdd 77be 542e eabc a13a cfbd 6318 2fbe
00000070: 6d69 2ebc a1e8 13bc 83af cc3c c363 363e
00000080: 609b 033d c3a5 75be 2dc6 2bbe b567 bcbd
00000090: fcf3 92be 6a45 913d 3f5c a33d e0ce 27be
000000a0: 2ee5 9ebe a2a0 30be 7ae6 5bbe 2e47 57be
000000b0: dc71 f63b 7aa7 4bbd c667 dd3d fce3 16be
000000c0: 1126 b3bd a8a8 1bbd 87f2 6dbe a20b d9bd
000000d0: 2e0b 7b3c abc1 6ebe 83d6 b3bd 9f0c 29be
000000e0: 0443 f53c cc57 3fbe 5145 38bc c94a e93a
000000f0: 9711 61bd 4db5 e83c 38fe b5be 2a41 debd
00000100: f131 f1bc 291d 383e dd28 4fbe 6afd ef3d
00000110: 1435 bfbd 3cd7 73be 4156 f4bc ea89 4cbd
00000120: c4ab 3a3d aa12 6f3d 264d debd d4bb 0cbe
00000130: 95db 1bbd 016f 5a3d b4b1 eabd 1fd0 67bc
00000140: 8a5a 8ebe 6a4e 05be 1e56 ccbc 0202 16bd
00000150: 3703 993d 1f9e 53be c6ca bb3d 0136 22be
00000160: 11b8 26be 50e7 2abd abc7 9ebe 7b25 873c
00000170: e660 9ebd eaf6 8fbd 01b5 18bb 35c3 84be
00000180: aaa0 d93d 5060 fdbd d629 52be 9411 d23d
00000190: e575 3dbd 62f7 a3be 4586 54bd 3984 e83d
000001a0: 9806 3abd 9655 56be 3d68 33be 5e6a ddbd
000001b0: 62f2 eebc f441 3cbc 625e f8bd 58ae 4ebe
000001c0: 1aa3 79be 54d8 86bd 870d 0abd 62ce 48be
000001d0: d1ff b53c b5f4 77be 54ea 2bbe e53f 503c
000001e0: 31ee 3bbe d361 10be 8c01 37bc d2fa c73b
000001f0: c17b 4e3d f2fb babd 97aa 7ebd 5484 aebd
00000200: d8e8 ebbc f36f 65bd ec8f 84bc 548d d2bd
00000210: 2a3c a7bd 79b8 73be 2fc5 e6bd 106c 81be
00000220: 832e 2dbe 2243 b6bd 0af8 e9bd 2df3 02be
00000230: e464 b0be 2b4f e3bd 660e 08be 647a 9c3d
00000240: 2560 d9be d319 8cbe 1825 20bd 4ef5 10be
00000250: 3296 c9bd f78a 37be 11aa bfbc c0f2 56bc
00000260: c5ad c1bd d90a 78bc 73b2 18be 1efb 3dbe
00000270: 2433 8fbd 15ca 9fbe a43e 40be 7f72 1bbe
00000280: a20c 97bd f1ef b03d 11b6 d2bd d42f 9cbc
00000290: fc69 14be 4ff7 adbd 9402 4bbd caba 9f3c
000002a0: d1b3 cdbc a09b 72be 1254 933d dc27 84bd
000002b0: 9e0c 4dbe 0049 febd 6d04 26be fd2b 35be
000002c0: 94b0 373e e10b ea3b 2e3d 62bd 9a6e d73b
000002d0: 0c4d 62be bd88 b53c 90ef c7bd 7c01 2ebe
000002e0: e959 dcbc 0ca7 abbe 29f8 e43c e749 b2bc
000002f0: ea97 08be 6e15 c13b d429 17be 76a9 9c3c
00000300: 89a6 acbe 6f9e 58be a85a 30be a765 693d
00000310: d2a6 5cbe 8a2b 1cbd 7ef5 d4bd c56f 9c3d
-0.20319669 0.03340076 -0.005787703 -0.17241637 -0.028710729 -0.016504018 -0.03474875 0.037388597
-0.16185409 0.053351317 -0.080617934 -0.15715988 -0.08967593 -0.1322077 0.14370984 -0.06821732
-0.18419999 0.03001316 -0.18222246 0.0822018 -0.21839797 -0.15906547 -0.035021763 -0.31162956
-0.24205488 -0.028586544 -0.101186045 -0.17099147 -0.010645253 -0.009027631 0.024986034 0.17811494
0.0321306 -0.23989014 -0.16774817 -0.09199468 -0.2870177 0.07093318 0.07976579 -0.1638751
-0.31034225 -0.17248777 -0.21474639 -0.21023247 0.0075208973 -0.049720265 0.10810809 -0.14735407
-0.08747495 -0.03800264 -0.23237048 -0.10597922 0.01532249 -0.23316066 -0.08781149 -0.16508721
0.029939182 -0.18685836 -0.011246995 0.0017798777 -0.054948416 0.028406763 -0.35545516 -0.10852273
-0.02944276 0.17979874 -0.20230432 0.11718257 -0.09336296 -0.23812574 -0.029826285 -0.049936213
0.045573965 0.05836741 -0.10854559 -0.13743526 -0.038051207 0.053328518 -0.114596754 -0.014148741
-0.2780345 -0.13018194 -0.024943408 -0.03662301 0.07471316 -0.20665787 0.09169535 -0.15840913
-0.16281153 -0.041724503 -0.3101171 0.016497364 -0.07733326 -0.07029517 -0.0023301246 -0.2593018
0.10626347 -0.12371886 -0.20523772 0.10257259 -0.04625501 -0.32024676 -0.051885862 0.113533445
-0.045416445 -0.20931086 -0.17520232 -0.108113036 -0.029168312 -0.011490334 -0.12127377 -0.20183694
-0.24378625 -0.0658423 -0.033704307 -0.19609979 0.02221671 -0.24214442 -0.16788608 0.012710546
-0.18352582 -0.14099817 -0.011169802 0.006102898 0.05041099 -0.09130086 -0.062174406 -0.08521333
-0.028797552 -0.056014966 -0.016181909 -0.102808625 -0.08165772 -0.2380084 -0.112680785 -0.25277758
-0.16912274 -0.08899523 -0.11424263 -0.12788077 -0.34451973 -0.110990845 -0.13286743 0.07640532
-0.42456165 -0.27363452 -0.039097875 -0.14156076 -0.098431006 -0.17924105 -0.023396524 -0.0131194
-0.09456972 -0.015139305 -0.14911823 -0.18552825 -0.06992176 -0.31208864 -0.18773896 -0.15180396
-0.073754564 0.08639515 -0.10288633 -0.019065775 -0.14493555 -0.08494436 -0.049563006 0.019498248
-0.025110157 -0.23692179 0.071937695 -0.06452915 -0.20024344 -0.124162674 -0.16212626 -0.17692561
0.17938453 0.0071425294 -0.055234127 0.006574464 -0.22099704 0.022159928 -0.0976249 -0.16992754
-0.026898341 -0.33525884 0.027950363 -0.021763755 -0.133392 0.005892447 -0.1476205 0.019123774
-0.33720806 -0.21154188 -0.17222083 0.05698171 -0.21548012 -0.03812746 -0.103983864 0.07638506

fc_state_1.weight f4 [150, 200]
00000000: c014 303d eece ebbd edb2 8abd da09 eb3d
00000010: f0a4 113e 5332 8fbc ff56 e53d 57bf 3e3e
00000020: 9b03 343d 9114 45be ab7e 943c ad07 d7bd
00000030: 4d37 0bbe edd6 093c ed83 b2bc 3528 963d
00000040: deed fabd c4bb ef3d a337 8f3a 30d2 df3d
00000050: 68df f13d a760 a83c c7e9 24be a16c c2bc
00000060: 5f26 1c3d 6985 af3d c286 fa3d bb61 e1bd
00000070: 3507 9a3d a69c 93bd a377 c2bd ab6e 2ebe
00000080: fdd1 5fbc b7b1 423d 5a66 32be 9828 d6bd
00000090: e309 a43c 0dc0 af3d ce3a d23d d6b7 98bc
000000a0: 6c17 c93d c748 d23d 6cbf 26be 5d3e 66bd
000000b0: 0b98 973d b1df e4bd 76f9 d23d 25ea 243e
000000c0: b5ab 133d 1425 08be 7663 ea3b 2720 f8bd
000000d0: 2cfe dc3d a818 92bd 2d17 19bd ec2b e43d
000000e0: 4c4f 813c 7fff db3d b663 02be 5e8f 793d
000000f0: b560 fa3c e7e6 99bd ab51 95bb 491a 8dbd
00000100: 02ad 8b3a 831d 843d 3a71 e6bc 0007 443d
00000110: f0a7 c23d 28ee 34bd fb71 fc3d 2a04 d63d
00000120: 9b07 df3d 2b60 333d 6a76 a2bd 0e9b 963c
00000130: 62ad b5be 744a 4f3e 63aa 093e f8eb 3abd
00000140: 1957 703b fff0 423d 6b0f 1dbd 4cc7 cc3d
00000150: 3883 993c d633 ecbd 4d53 9fbd db64 6fbc
00000160: 53b8 10be 11d5 56bc f481 87bd 5e62 963d
00000170: e5b2 8abb 4f08 c23d 05dc 0b3e 622c da3d
00000180: b1aa 4cbd 3fb5 5c3d 8f0e 4ebc 058a 9e3c
00000190: 03a4 813c ca32 2fbc e49e 1a3d c8f8 9abd
000001a0: 2646 57bd 7c1d 163c c571 a13d 4eed 3cbe
000001b0: eda7 463c 2af6 98bd ac94 2f3d 0e00 ca3d
000001c0: 3276 e63c 2a3b aebd abec 29bc 425b 913d
000001d0: 9d1a 233d 65c3 bd3d 1c65 c6bc b5e7 dc3d
000001e0: bc1e 1b3e 4b98 e93c fef8 3d3d bc18 45bc
000001f0: 058d 083e 8386 dabd c26b 1bbe 6939 2a3d
00000200: 9020 d5bc cc6b 42be 61a9 f8bd 5898 013d
00000210: 0c31 6cbd 6c31 0bbc b6e7 a23d 1ef7 613d
00000220: 9683 b33d a5f9 143e ccb0 d1bd db90 1f3d
00000230: 9e3b e73c d41b aebc 9706 b5bd 8e8b 743d
00000240: aa97 cd3d 95b7 d43c 6b52 063e 377d 9e3c
00000250: 5dd7 09bd 4249 8bbe e0c2 39be ab20 e73c
00000260: 4c2d 563e 4840 093e e18f 8cbd fed9 5e3d
00000270: e02f 7f3c eb5b 1bbd d0b9 2d3d 7531 bcbc
00000280: f9d4 38be 2264 d8bc 554f 99bc 6c2b ae3d
00000290: d020 103e 594f 533d 66eb 113d 3dbb 95bc
000002a0: adc1 d1bb 3083 70be 4957 813d f73a 8fbd
000002b0: ed79 c83d f433 36be 6b26 703c 6d02 493d
000002c0: ed74 4a3d dbbc 173e 5836 a0bb 2367 3bbe
000002d0: a87b cdbd 3e11 933d b34d d23d 61dd 713c
000002e0: 3e9a 7c3d 1f2b 3bbc a688 9c3d 1cea 2a3e
000002f0: b403 19be af42 2bbe 1438 6abd d30d c9bd
00000300: 59c9 fe3d bb05 743d b1cf b6bb 6d4e 17be
00000310: 7486 2abd 9266 db3d 735f 37bd 20bb aebb
00000320: ae38 eabe 7e97 54bd a1d2 c6bd 4eba 56bc
00000330: ab9a adbc d3c7 023e 2cb4 eabd 0e4b a4bd
00000340: 8716 53bd cc88 8d3d 6a24 833d faff 113e
00000350: c6bd 81bd 7648 fd3d 2cd9 cb3c 5ef3 f9bc
00000360: 7118 7b3e 5bda 373e 7472 f73d daa0 173e
00000370: 5790 d83c 8afd 773e 35eb e23d bd32 203d
00000380: c684 44be 3dca b23c 0bc7 22be 13eb c6bd
00000390: 8474 b9bd 8dda 55bd 78c7 073d 5ebb 853d
000003a0: ae69 993e 7e87 61bc c142 f23c be69 f33d
000003b0: a5de 9b3d 0255 07bc 308c 3f3e 1ce0 ad3d
000003c0: cc34 5b3c 17c2 9cbe 00db 72be 99cb dcbd
000003d0: 75c1 12bd 7ca3 d53c 86ec 43bd 6481 a53c
000003e0: 8e88 e2be c546 fa3c d3c1 843d 8b5c 9b3d
000003f0: 7fe6 e7bd 3cd0 363c fc48 1abe 3bb2 88bd
0.04298854 -0.11514078 -0.06772409 0.114764884 0.14223075 -0.017480051 0.11198234 0.18627678
0.04394875 -0.19246127 0.018126806 -0.10499511 -0.13595314 0.008413059 -0.021791423 0.07331888
-0.12252401 0.11705735 0.0010926615 0.10928762 0.118101895 0.0205539 -0.16104804 -0.023733439
0.03812253 0.08570368 0.12232734 -0.11004969 0.07520906 -0.07207613 -0.09495475 -0.17034404
-0.013660905 0.047532763 -0.17421857 -0.104569614 0.020024246 0.08581553 0.10265122 -0.018642347
0.098189205 0.102677874 -0.16283959 -0.056211818 0.07402047 -0.11175478 0.10301487 0.16104944
0.036052424 -0.13295394 0.00715297 -0.121155076 0.10790667 -0.07133609 -0.037375618 0.1114119
0.015784882 0.107420914 -0.12733349 0.06092774 0.030563692 -0.07514744 -0.0045568547 -0.06889779
0.0010656419 0.064509414 -0.028130163 0.04785824 0.09504688 -0.044172436 0.123264275 0.10450013
0.108901225 0.043792885 -0.07932742 0.018384483 -0.35483843 0.20243245 0.13443904 -0.045635194
0.0036673008 0.047593113 -0.03834478 0.0999895 0.018739328 -0.115333244 -0.0777956 -0.014611448
-0.14132814 -0.013112322 -0.066165835 0.07342981 -0.0042327517 0.09474241 0.1365815 0.106529966
-0.04996747 0.053883787 -0.012576713 0.019352922 0.015825277 -0.010693261 0.037749186 -0.075669825
-0.052557133 0.009162303 0.07883028 -0.184499 0.012124998 -0.07468827 0.042866394 0.09863292
0.028132532 -0.085073784 -0.010371367 0.07097484 0.039820302 0.09265784 -0.024218135 0.10786382
0.15148443 0.028515002 0.046380036 -0.012029823 0.13335045 -0.10670187 -0.15177825 0.041558657
-0.026016504 -0.18986434 -0.121416815 0.031639427 -0.057663962 -0.00849567 0.079543516 0.05516731
0.087653324 0.14548357 -0.102387995 0.038956504 0.02822667 -0.021253504 -0.088391475 0.059703402
0.10038693 0.025966445 0.13117377 0.019346816 -0.033652652 -0.2720433 -0.18140745 0.02821382
0.20915717 0.13403428 -0.0686338 0.054407112 0.015575379 -0.037929457 0.042413533 -0.022972802
-0.18049993 -0.026414935 -0.018714586 0.08504376 0.14075017 0.051589344 0.035624884 -0.018277759
-0.006401262 -0.23487544 0.063154764 -0.069936685 0.097888805 -0.17793256 0.014657597 0.04907458
0.049427915 0.14818136 -0.004889291 -0.18301062 -0.10033351 0.07181023 0.10268726 0.0147622535
0.061670534 -0.011423855 0.07643251 0.16690868 -0.14942819 -0.16724657 -0.057182387 -0.0981709
0.12440748 0.059575778 -0.005578958 -0.14776011 -0.04163213 0.10712923 -0.04476876 -0.0053323656
-0.45746368 -0.051902287 -0.09708143 -0.013105942 -0.021191915 0.1277154 -0.11460146 -0.08022128
-0.051535156 0.069108576 0.0640343 0.14257804 -0.063350245 0.123673365 0.024883829 -0.030511554
0.24521042 0.1795439 0.12082377 0.14807454 0.026436014 0.24217811 0.110800184 0.039110888
-0.19191274 0.02182495 -0.15896241 -0.097128056 -0.09055427 -0.05221038 0.033149213 0.06529878
0.2996344 -0.013765214 0.029572846 0.11885403 0.076108254 -0.008260014 0.18705821 0.08490011
0.013379287 -0.3061683 -0.23716354 -0.10781021 -0.035829026 0.026078932 -0.04783299 0.0202033
-0.44244808 0.030551324 0.064822815 0.075860105 -0.113232605 0.011158045 -0.15066904 -0.0667462

fc_state_1.bias f4 [150]
00000000: 4a37 243b fb3b 3ebe 8772 6abc 8f4c 9cbb
00000010: 55c6 e4bc 9994 8a3c 0845 f7bb 2c53 afbd
00000020: dfcb 77bd 82f7 d4bd 7849 863d f002 fb3b
00000030: 8e7d 29be 0221 933b 912e 293c dd77 d8bd
00000040: 180a 0abe 2192 853b b012 c7bd 0195 0c3d
00000050: 7cf0 0e3c 3b65 82bd 30a9 63bd 1667 0abb
00000060: fb08 72bd 4f5e 27bd 68ea b03d a264 85bc
00000070: ac8a 543c bb96 60bd b15e 63bd 18ba 513b
00000080: 3275 8b3c d068 1cbd d73d a1bd 754b e3bc
00000090: 9501 aabb 98ac 0abd 7934 96bc 55ac 7cbc
000000a0: 8da4 8e3d 0f54 30bd 273c a83d 23eb 6ebd
000000b0: 2eb3 743d cf2a 453d fb96 c5bc d2da a6bd
000000c0: a491 d4bd a68d debb b874 e7bd 44b2 8fbd
000000d0: 4ffa 363d 1ea9 02bc 8153 0cbe 9c7e 92bd
000000e0: 0197 b4bd 82e0 06bd 3dad 48bd b0d1 a63d
000000f0: a4c7 03be 917e 803d 7e82 8fbc 0fa8 f6bc
00000100: 8ce0 c43d 436b 91bc 6259 eabd 9c68 95bd
00000110: 508f 163e e70f e7bd 1e36 c9bc 870a 943d
00000120: 92bd 90bd bfc7 34bc b22a 283c d2f3 c83a
00000130: d28e 6a3c 23a3 1dbe 1e9d 20bc 1291 5abd
00000140: 544f c53d da85 04be b95e 48bd ede8 b93d
00000150: e6ce 5dbc 9121 8c3d 69c9 f3bd e970 47bd
00000160: c88c 953c 40e5 18bc 03b3 c73b 04c6 c43d
00000170: 222f 3ebd 61f8 a73c a0aa 9abc 75d6 e8bd
00000180: 1de5 d53d b4b7 70bd f2a9 cd3c 4998 a7bc
00000190: 18d3 a6bd 5780 e0bd 8b54 5d3d d712 cbbd
000001a0: d7c6 31bd 74cc f1bd 6a97 39be 0c87 8abd
000001b0: b671 8ebc fe9c bdbd fd21 b7bb 72d4 8cbc
000001c0: bb7a b2bc 6ae8 d8bc c15a 98bc 1fd5 bebd
000001d0: 33a9 c23d dc43 25be 93fd 3ebe 5990 723c
000001e0: 6032 57bd 2f70 dbbd 624f 0dbd 4391 123c
000001f0: c180 02be dfaf 3ebe 275e 34bd 0b6c 6d3c
00000200: 663b f53c 84df dd3d bdde da3c 04ab 2bbc
00000210: 2d8a 8fbd 13e3 ccbc 33ea a1bd db2f 60bd
00000220: 78a1 b63c 33d2 ae3d 1acc ad3d c7f7 25be
00000230: f6ac ccba a49e 1ebe a3af cc3c c943 9a3d
00000240: 5294 e33d 94db c0bc 6640 edbd 2fb8 aa3c
00000250: ebe4 353d cc50 aebd
0.002505737 -0.18577568 -0.014309532 -0.0047698687 -0.027926603 0.01691656 -0.007546071 -0.08560786
-0.06049716 -0.10398771 0.06556982 0.0076602623 -0.16551802 0.004490019 0.010326044 -0.10569737
-0.13480413 0.004076258 -0.09720361 0.03432179 0.008724328 -0.063669644 -0.05558127 -0.0021118573
-0.059090596 -0.040861424 0.086384594 -0.016283337 0.012972515 -0.054831248 -0.055510227 0.003200179
0.017023657 -0.038185894 -0.07873123 -0.027745942 -0.005188177 -0.033856004 -0.018335568 -0.0154219465
0.06964979 -0.043048915 0.08214598 -0.058329713 0.05974119 0.04813653 -0.024119845 -0.081472054
-0.10379341 -0.006791788 -0.11301559 -0.07016423 0.044672307 -0.007974891 -0.13703729 -0.07153055
-0.08817864 -0.03292895 -0.048993338 0.081454635 -0.12869126 0.062741406 -0.017518278 -0.030109433
0.096131414 -0.017751342 -0.1144283 -0.07295343 0.14703107 -0.1128233 -0.024561938 0.072285704
-0.07067408 -0.011033951 0.010264086 0.0015331453 0.014316278 -0.15394263 -0.009803085 -0.053361006
0.09634271 -0.12941685 -0.04891846 0.0907763 -0.013538098 0.0684234 -0.1190365 -0.048691664
0.018255606 -0.009332001 0.006094338 0.09608081 -0.046431668 0.020504178 -0.018880188 -0.113690294
0.104440905 -0.058768943 0.02510545 -0.020458357 -0.08145732 -0.10961979 0.054035705 -0.09915703
-0.04340252 -0.118065745 -0.18124166 -0.067640394 -0.017388206 -0.092584595 -0.0055887685 -0.017191146
-0.021787038 -0.026478011 -0.018597962 -0.093179934 0.095049284 -0.16139168 -0.18651418 0.014804923
-0.052538276 -0.10714757 -0.034499533 0.008945766 -0.12744428 -0.18621777 -0.044035103 0.0144910915
0.02993555 0.10833648 0.026717538 -0.010477785 -0.07008777 -0.025010621 -0.07905998 -0.05473314
0.022293791 0.08536186 0.08486195 -0.16207801 -0.0015615511 -0.15490204 0.024986094 0.0753246
0.11112274 -0.023542203 -0.11584549 0.020839779 0.044407766 -0.085115045

fc_merge_0.weight f4 [200, 154]
00000000: 41d8 b23d 06dd 82bd 5299 97bd 4a76 203e
00000010: c1ae b13d 0418 d23d 7a6d 0f3e f94a 1bbe
00000020: 3063 b4be 8599 fd3c 7d83 30bc e5f0 cb3d
00000030: 807e 7dbd 9243 2abe 6035 c4bd 79a8 c93a
00000040: 88c8 9e3d 994f 93be 04cc 21bd 51ff 44bc
00000050: e2ec 8b3c b22e babc b7c8 90be 6989 b23d
00000060: 8029 36bd c332 713d 3cbc b93d 6196 51be
00000070: 7afc 05bd 21c7 d83b 16ee 34bb a844 373e
00000080: 057f 27bd 1694 5dbd b628 be3d 7b8e 48be
00000090: 9a20 a6bd 304e 3cbe 7e97 c2bc f4d4 12bd
000000a0: f64c 85bd f1d4 a5bd be6f 86bd adfa f93c
000000b0: a20f c33d 3a8e c4bc ea08 55bb 4f28 0abe
000000c0: 4b2f 2d3d 3be4 a43c 3bbd 513c c81a 933d
000000d0: 2d3e dabd 9f59 47bd 5dc2 a43c 3863 94bd
000000e0: 30e7 1ebd 438b 5a3d 70ef d23c 2776 243c
000000f0: f7d8 cf3d 8ea7 63bd 0b31 a2be a0c9 5c3d
00000100: 6fcb e5bd 66c8 2c3c 2612 c93d 945a 3f3d
00000110: 681c 2fbd 8bc5 24be 76b1 433c e799 2fbe
00000120: 63e0 183c 658f 21bf 1af5 9ebe 02cb 80bd
00000130: 9fe7 f53d 093f 32bc 44a5 e9bd 1b6d 6e3e
00000140: 2e6f 4e3e 8f56 d0bd 7bd4 bebe a591 32be
00000150: c816 a23d 74f2 343d dec7 ecbc 23a9 8bbd
00000160: c731 493d 4af0 983d 296f c93d 9072 afbd
00000170: 4129 253e 5676 49be 604e abbe 7ad1 54bd
00000180: c68f 343d ba61 03be 3258 dc3c 99a4 d2bd
00000190: 8c76 863c 7c8f fe3d 81e3 b2be fe14 d9be
000001a0: 942f 25be c430 e23d 6727 89bc d981 5fbd
000001b0: 8144 3dbd 2035 88be 1030 8dbe 0f1b a6be
000001c0: 499c 213e 1820 49be a011 12be 7990 873d
000001d0: dfa6 2dbe a4c2 4cbc d200 d33d 6bc2 083e
000001e0: f8fc 45be 497a 81be 479c 85be 804a 523c
000001f0: 1460 92be d387 013e 1829 00bd 689b 2ebe
00000200: fafd 643d 0267 99be c385 973d 5bb0 26be
00000210: 0e1f e23c e364 9bbe 6e92 7abd 145d e0bd
00000220: 2335 053e 2de9 46be 6734 cfba 8b80 f6bd
00000230: 3b7e 2fbd ce8b 9f3b ef03 bb3d 31cc 89bd
00000240: 1588 a93d a957 f9bd f71e 273e bd74 ee3d
00000250: 30c8 35be bd7c 98bd c851 3bbe 1074 46be
00000260: f693 9e3d 74ff 02bd 5b00 ed3d 9cb7 9fbe
00000270: 4851 84bd 9452 45be e69e 9dbc b50f 093e
00000280: 8db2 ea3d e984 7ebe e268 74be 8144 dd3c
00000290: 0f8b 133d 8925 953b 0101 1cbb 0e77 16be
000002a0: ce7d 02be 8e85 64bd f52e 72be 2ab8 903c
000002b0: 43d5 60bd fcb6 0d3e d694 abbd 74e9 523e
000002c0: 9a0c 893c 6b15 c0bd b43c 49bd 78b6 8dbd
000002d0: c55f cebd 8088 0abe 739d 0dbd 568f e3bd
000002e0: 3391 013e 738c fabd 4e7e 4dbe 4b4d b9bd
000002f0: b148 393e b7a6 a3bd 2c97 df3c a0e1 91be
00000300: dbb9 1f3e bf9f 98be 38e6 07be 653b 5c3d
00000310: 1280 efbd d262 2cbd 2298 6ebe 80f8 d93b
00000320: 7bc1 d53d 2d24 debd c212 2bbd c147 503c
00000330: 3357 c73d f314 903d a455 113e 275a 72be
00000340: 021d 363d 0380 073e 09af 73bd 2da3 aabe
00000350: 4514 aebd f458 edbc 62c9 59bd 8805 893d
00000360: b5fb 4ebe 907d 9c3d b053 07bd 6c69 84bd
00000370: 7d48 5b3e ebef d0bd 580f 523e 545a 91bc
00000380: 18c2 1bbe da6d edbd 2133 5fbd 49fa 2f3e
00000390: 1564 dbbe a930 10be 47a2 c8bd 9ad1 95bc
000003a0: dd53 3bbc da9e 99bc 3a38 56ba ffe9 ba3d
000003b0: 12f8 4ebe 1059 c6bc 9236 ea3d 6204 a23d
000003c0: d77a ad3d b4c5 38bd ba26 31be 3337 513d
000003d0: 122f 96bc b9b0 76be 257d 533e 9e5b 47be
000003e0: c7fe 2dbd 5d9a 223d 4e2c 563e d81a ff3b
000003f0: 31a8 bf3d 3f10 8d3c 248a e43c 899b 5c3c
0.087326534 -0.06389813 -0.074022904 0.15670124 0.0867591 0.10258487 0.14006606 -0.15165319
-0.35231924 0.030956993 -0.010773537 0.09958056 -0.061888218 -0.16627339 -0.09580493 0.0015385292
0.07753092 -0.28771666 -0.039501205 -0.012023763 0.017080728 -0.022727344 -0.28278133 0.08717615
-0.04447317 0.0588863 0.09069106 -0.20467521 -0.032711484 0.006615535 -0.002760773 0.17897284
-0.04089262 -0.054096304 0.09285109 -0.19585602 -0.08111687 -0.18389201 -0.023753878 -0.03584762
-0.0650882 -0.08097256 -0.06564282 0.03051504 0.09524466 -0.0239936 -0.0032506534 -0.13491939
0.04228143 0.02012836 0.012801464 0.071828425 -0.1065639 -0.048669454 0.02011221 -0.07245487
-0.038794696 0.053355467 0.025748938 0.010037935 0.10148805 -0.055579714 -0.31678042 0.053903222
-0.112204425 0.010545826 0.09817915 0.04671724 -0.0427517 -0.16090982 0.011944165 -0.17148553
0.009330842 -0.6310943 -0.31046373 -0.06288721 0.12007069 -0.010879287 -0.11408475 0.23283808
0.20159599 -0.1017276 -0.37271485 -0.17438371 0.079145014 0.044176534 -0.028903898 -0.0681937
0.049119737 0.074677065 0.09835655 -0.08566773 0.16129018 -0.19674048 -0.33458233 -0.051957585
0.044082426 -0.12830248 0.026897524 -0.10285301 0.01641395 0.12429711 -0.34939197 -0.42398828
-0.16131431 0.110444576 -0.016742421 -0.05456719 -0.04620791 -0.2660303 -0.2757573 -0.3244252
0.15782274 -0.19641149 -0.14264536 0.06619353 -0.16958188 -0.012497578 0.10302891 0.13355415
-0.19334781 -0.2528861 -0.26095793 0.012835145 -0.28588927 0.12649469 -0.03128919 -0.1705147
0.055906273 -0.299614 0.0739856 -0.16278212 0.027602699 -0.30350408 -0.061174802 -0.10955253
0.13008551 -0.19424887 -0.0015808464 -0.120362364 -0.042844992 0.004868961 0.0913161 -0.067283995
0.08277909 -0.12174923 0.16320406 0.1164336 -0.17752147 -0.07445667 -0.18292916 -0.19380212
0.07743065 -0.0319819 0.115723334 -0.3119477 -0.06460816 -0.19269782 -0.019240808 0.13384898
0.11459837 -0.24855389 -0.23868135 0.027010204 0.03602129 0.0045515937 -0.002380431 -0.14693853
-0.12743303 -0.05579143 -0.23650725 0.017665941 -0.054890882 0.13839334 -0.083779976 0.20596868
0.016729642 -0.09379085 -0.049130157 -0.06919569 -0.1007686 -0.13528633 -0.034573983 -0.111113235
0.12653045 -0.1223382 -0.20067713 -0.090479456 0.18094136 -0.07990783 0.027293764 -0.2849245
0.15598242 -0.29809377 -0.13271415 0.05376758 -0.11694349 -0.04208643 -0.23300222 0.006651938
0.10437294 -0.10846744 -0.041765936 0.01271242 0.09733429 0.07035246 0.14192826 -0.23667203
0.044461258 0.13232426 -0.0594931 -0.33327618 -0.0849996 -0.02897308 -0.05317057 0.06690508
-0.20213206 0.07641137 -0.033038795 -0.0646542 0.21414371 -0.10202011 0.20513666 -0.017743267
-0.1521076 -0.11593218 -0.05449212 0.1718532 -0.42849794 -0.14081062 -0.09796577 -0.018288422
-0.011433569 -0.018752504 -0.00081718306 0.091266625 -0.20211819 -0.02421239 0.1143619 0.07910992
0.084706955 -0.04511042 -0.1729993 0.051078033 -0.018332992 -0.24090852 0.20653208 -0.19468543
-0.042479303 0.039697994 0.20915338 0.0077851824 0.09358252 0.01721966 0.027897902 0.013464817

fc_merge_0.bias f4 [200]
00000000: ce2e 5dbe c1b4 42be b1c1 213e a1f1 e8bd
00000010: 59ab 02bc ff67 36be cdc4 44be 79f7 2ebe
00000020: 71b3 49be 169e 6dbe ce45 243d 28bd 04be
00000030: 6449 583c 390d 073e a82e 563c a0a4 82be
00000040: a73b 24be 7f28 0abe 31d6 363d 6c46 06be
00000050: 8c41 333e 38b8 cb3d c90e 42be d668 59bd
00000060: e7c9 ca3d 2b6f f73c d027 6bbd 7536 1ebd
00000070: 165a 45be 54a7 e83d bf44 893e dcba afbd
00000080: 9fbe 71be 8aaf 0e3e c21d 2abe b591 78be
00000090: eb40 4e3e 40c3 d2bd 212b 33be 7c62 8dbd
000000a0: 4ea5 08bd 25e1 3f3d c858 313d 4978 1ebe
000000b0: 7b0a 51bd b699 533d ee73 313e c77d e8bd
000000c0: bdb2 cdbd fad2 183e b9dd 92ba 6299 303b
000000d0: 302d 52be 95ad a53d 4638 10bd 9170 77be
000000e0: 56df fbbd a0c7 a2bd 2d71 18be 2994 edbd
000000f0: 7f96 123e a180 c83c d35c 56be 785a 5bbe
00000100: 7f07 31be 11e5 04bd 9763 8fbe ab9f 09be
00000110: ed8a 3dbe f091 323e c9a2 563d d6de 35be
00000120: 9653 45be 160b 8e3d 2b2c f33d 7884 8bbe
00000130: 6c9e 55be df72 8ebd 7db6 19be 4018 d0bd
00000140: 9c69 f0bd 4745 69bc 9b6a 00bd 642c 8fbe
00000150: da41 b03d b955 c43d ca11 093e 8a58 45bd
00000160: 3b35 89bd 9c9e 5cbe 9496 0d3e eabe d03d
00000170: 4f34 ca3c 062a acbe 1f61 643c c9ae 4cbe
00000180: e23b 783d 33c3 1cbe 04da 83be 3fe2 5b3d
00000190: 0837 98ba 4ce7 f3bd 8af6 123c fd3e 003e
000001a0: c5ed 9fbd 7685 98be 83c8 cb3d 444c 5bbe
000001b0: df42 413c a7c0 e3bd 18f3 77be bd51 b43d
000001c0: 69c4 0a3e 708c 8d3d ab53 49bd e49d 80bc
000001d0: df49 05bc b2d1 0b3e 3dc2 f13d 803d 9abc
000001e0: bbb9 b7bd 6473 863c e9a8 c0bd 6836 f5bd
000001f0: 98da 12bc 8c52 e4bd c089 893c e9b8 f4bd
00000200: fa55 62bd 753b 65be 520b bcbd 1395 62be
00000210: 1304 82be af50 593d 7634 4bbd cd08 83bd
00000220: 2fd3 aa3d 1f81 1abe 1f89 3fbe fde9 a93d
00000230: d020 71be 6860 eebd a267 7ebd a52e 613d
00000240: 86a1 e8bd 3fdf 09bb 3c55 74bd 8728 0abe
00000250: ea24 9dbc 4def 42be 198a d9bd 7b0e 69bd
00000260: f9d5 52be 9f05 0ebe beee b23d 8f55 9bbc
00000270: 9ad8 80be 8d46 56be 772c 07be ce47 5bbe
00000280: 29ef 57be 3047 073e 97fc 09bd a044 00be
00000290: 7a2b c93d 6a5e 78be 914c 05be 7f9e 67bb
000002a0: 3091 9abd 3840 5ebe e189 8ebe c28c 6cbc
000002b0: 18b7 89bd 8b71 543e 6092 5b3d eb9a a43d
000002c0: 5736 28be 9673 0d3d b4a8 ecbd b94f 79be
000002d0: c867 f63d abe6 653d e6f7 f6bd 54b3 02be
000002e0: cc50 a73d 2f20 cf3d bbe5 1cbe 5cd5 cdbd
000002f0: 6ec9 743d 2b23 1ebe 3d26 663c 9849 443e
00000300: b171 81bb 192a 13be fac5 a2be 554d e3bd
00000310: a437 c03d c6c7 c63d a40a c1bd 27ad 3dbe
-0.21599886 -0.19014265 0.15796544 -0.11374212 -0.007975423 -0.17813109 -0.19215699 -0.17086591
-0.19697358 -0.23204836 0.040105633 -0.12962782 0.013201091 0.13188638 0.013072647 -0.25516224
-0.1603838 -0.1349201 0.044637863 -0.13112801 0.17505473 0.09947246 -0.18950953 -0.053078495
0.09901791 0.030204376 -0.057411015 -0.038626153 -0.19272646 0.1136004 0.26810262 -0.085805625
-0.23607872 0.1393415 -0.16612914 -0.24274333 0.20141952 -0.10291147 -0.17496921 -0.0690355
-0.03336077 0.046845574 0.04329756 -0.15475573 -0.051035386 0.051660262 0.1732938 -0.11352115
-0.10043857 0.14924231 -0.0011204995 0.0026946892 -0.2052505 0.08089749 -0.035209917 -0.24164034
-0.12298457 -0.07948232 -0.14886923 -0.11600525 0.14315222 0.024475398 -0.20933847 -0.2142123
-0.17288016 -0.032445017 -0.2800567 -0.13439815 -0.18510027 0.17438483 0.052401338 -0.17760786
-0.19270167 0.06935708 0.11873659 -0.27249503 -0.20861214 -0.06955504 -0.1501102 -0.10160875
-0.117388934 -0.014237708 -0.031351667 -0.27963555 0.0860631 0.09586663 0.13385692 -0.04818014
-0.06699606 -0.2154488 0.13826972 0.10192664 0.024683146 -0.3362581 0.013939171 -0.1998855
0.060603984 -0.15308838 -0.2575227 0.053682562 -0.001161308 -0.11909351 0.008969912 0.12524028
-0.07809023 -0.29789323 0.09950354 -0.21415812 0.0117957285 -0.1112073 -0.24213827 0.08804653
0.13551487 0.06911552 -0.049152058 -0.015700288 -0.008135288 0.13654211 0.11804626 -0.018828154
-0.08970972 0.016412444 -0.09407217 -0.11973268 -0.00896325 -0.11148557 0.016789317 -0.11949331
-0.055257775 -0.22385962 -0.09181847 -0.2212718 -0.25393733 0.05305546 -0.049610578 -0.06398163
0.08341061 -0.15088318 -0.18704651 0.08296583 -0.23547673 -0.11639482 -0.06211055 0.054976124
-0.11358933 -0.0021037606 -0.0596516 -0.13492022 -0.019182641 -0.19036599 -0.10622043 -0.056898575
-0.20589437 -0.13869332 0.08736943 -0.018961696 -0.25165254 -0.2092535 -0.13200556 -0.2141411
-0.21087326 0.1321075 -0.033688154 -0.12526178 0.098227456 -0.24254766 -0.13017489 -0.0035342274
-0.075472236 -0.21704185 -0.27839568 -0.014437856 -0.067243755 0.20746438 0.05360639 0.08037361
-0.16426979 0.03453406 -0.11555615 -0.24346818 0.120315135 0.056128185 -0.120590016 -0.12763721
0.08169708 0.101135604 -0.1532201 -0.10050461 0.05976241 -0.15443103 0.014047203 0.19168699
-0.0039503206 -0.14371528 -0.3179167 -0.11098734 0.093856126 0.097060725 -0.09425858 -0.18523084

fc_merge_1.weight f4 [150, 200]
00000000: fcb3 f63d ae57 413e 2921 383d 70b2 63bc
00000010: fd7a 8ebc 9553 693d 86a5 d8be 9b89 8f3d
00000020: 937b d73c 0723 16be 38c6 d73d 7450 b3be
00000030: 1f7d 0b3e aeaa 74bc 9f44 cabd 81fa 423e
00000040: bc42 2d3e 09c3 893d a763 9a3d a42e 96bd
00000050: b26d d7bc 2bbb ad3b 6118 b2bc 9eb8 9ebe
00000060: 6fbc 043e 7612 54be c179 113d 0491 08bd
00000070: 5db7 97be 1b16 b2bd 52a3 adbd 4db4 14bd
00000080: be57 863b 1214 ce3c 73ef 05bc a163 03be
00000090: 0af3 bfbd 3e02 c1bd 5f7c ef3d b8bf 983c
000000a0: abcf 6d3e 9c8e ff3d 9514 133e c286 8d3d
000000b0: 5e5f 38be 1815 a63d 2cc1 6b3d d27d e43d
000000c0: 3117 ea3d 41c9 50bd d8c7 8fbe b395 fc3c
000000d0: a212 28be 3e71 9cbc 502e f6bd 097f b43d
000000e0: 99e1 bfbd 1dd6 6e3d 6527 b8bd 28c9 f0bd
000000f0: 59b2 4f3d 138a a43d cddd a6bc 127d e9bd
00000100: 43e2 c6bd b8dd 723c 9764 e3bc 5542 493e
00000110: c793 23be b401 4a3d 3092 87bd 70fb 96bd
00000120: 3c1c e7bd e887 a93d ceb6 17be f03c c2bc
00000130: 31d5 0c3e 34eb afbb 7657 953d 0197 033e
00000140: 22b2 263c da70 8c3d d52d aebd 7813 19be
00000150: 44b9 dc3d 1626 8c3c a34f ef3d 7c43 19be
00000160: 7727 16be 3b2e 28be af1c 9c3d 3375 0b3e
00000170: 1273 c43d 5a53 f13d c827 0a3e 7d2b ed3a
00000180: 71e8 393e a2d6 dc3d e401 4d3e 8234 783d
00000190: 5683 b6be 819d 93be b1d0 1ebe e1f0 abbd
000001a0: 0fdc bbbd 3e38 73bd bce0 1ebe 7499 443d
000001b0: feb2 42bd 9e5e 953d 7259 8dbe 0645 a9bc
000001c0: a7fa d93d 514f eabd 4101 4ebc 5775 313e
000001d0: c283 cf3d aac1 9c3d c369 953d c7d4 8d3d
000001e0: 1069 f9bd 2c99 35be 2c73 3c3e bac0 26bd
000001f0: 7818 6abd 2b26 7a3c ac81 483d ce65 87be
00000200: f752 fb3d d38b 16bd 6485 1c3c 5d0f e1bd
00000210: 36da f4bc 8185 6f3e c4b1 693d fd8c c73d
00000220: 49dc 5e3c 25c4 74be 4b86 4fbe 7877 f73d
00000230: 3365 edbd 5c37 4b3d 5116 3dbe 6e3f 863c
00000240: e6c2 4d3e 86b6 843d 8bec e5bd c083 8dbe
00000250: cb29 3dbe 49aa 1fbe e901 75bd 503b 37be
00000260: 665d 08be fb30 dabd 1acd d2bc 3b35 293c
00000270: cea3 31be f1a1 b03d 671f 3ebd da3b df3b
00000280: 7d31 efbb af7b d0bc cb39 363d 0755 9cbd
00000290: 5ea4 1abe 6cc0 0ebf 6420 2f3d 691a 033d
000002a0: 46b0 51be 8fde 8bbd 26fc 8bbc 4fed 923d
000002b0: 99ea 603d 0b4b df3d 0286 0d3e 7b6b 273e
000002c0: 6ffc ba3d c7dc 3ebe 8ca8 e23d 74a4 0b3d
000002d0: d49c 093d b1d4 7c3e a438 d43d a165 5ebe
000002e0: f637 413c 66c4 113e 7a70 823d 2ac7 093e
000002f0: 3268 15be b46f 25be f395 393e 0805 bb3d
00000300: 778b 833d a045 4d3d cb3f 643e 857c 6c3d
00000310: 9692 9c3d e2e8 9cbd 339e 9b3c 1a7d 733d
00000320: 4372 a43b 6a4a 9a3d 1d83 cebd 20fb a13c
00000330: b6ab bc3d 2fcf a6bd dda4 c8bd 314c d1bd
00000340: d584 d6bc 39d8 b23c d4e8 d53d 23f4 88bd
00000350: 980d b83d 3b06 3fbe 6b06 ffbc 77a0 343d
00000360: ff37 aa3d 5f9d c33c 6798 2a3d 688b 10be
00000370: f325 0cbd 6d2c a63d 9502 5abd d5f1 d13d
00000380: 5f34 073e 718c 55bd 101d 04be 5137 a0bd
00000390: cc54 223d 3c2d 923c a2f7 e1bc 8b95 79bd
000003a0: 8ca7 1abd f721 ac3b 3b30 c13d f858 00bd
000003b0: b795 c53d 0bf0 e6bc dcde 303d 2233 153d
000003c0: 2e94 ad3c 806c 6d3d 465e 8fbd d464 94bd
000003d0: 48e1 0a3d 2dd5 833d 5d28 9cbd 6a29 4e3d
000003e0: c029 44be 9fd8 813d 2928 9cbd 06d4 813d
000003f0: 4e25 243e 4746 643d 7e5d ca3c bd59 9c3d
0.12046048 0.18881103 0.0449535 -0.013897523 -0.01739263 0.056964476 -0.42313784 0.07008668
0.026304042 -0.146618 0.10535854 -0.35022318 0.13621949 -0.014933271 -0.0987637 0.19040872
0.16919988 0.06726653 0.075385384 -0.07333115 -0.026297424 0.005301853 -0.02174014 -0.31000227
0.12962507 -0.20710167 0.035516504 -0.033341423 -0.29632083 -0.086956225 -0.084784165 -0.03630476
0.004099815 0.025156055 -0.008174765 -0.12830974 -0.09372528 -0.09424256 0.11693644 0.018646106
0.2322375 0.124783725 0.1436332 0.06910469 -0.1800513 0.08109492 0.05755727 0.11156811
0.11430205 -0.05097318 -0.28082156 0.0308331 -0.16413358 -0.019096967 -0.12020552 0.088132925
-0.09369201 0.058309663 -0.08991889 -0.117571175 0.050707195 0.08034148 -0.020369435 -0.114008084
-0.09711125 0.01482337 -0.027757926 0.1965421 -0.15974341 0.04931803 -0.0661968 -0.07372177
-0.11284682 0.08277875 -0.14815828 -0.023710698 0.13753201 -0.0053686146 0.072920725 0.12850572
0.010174306 0.06857462 -0.085048355 -0.14948833 0.10777524 0.017108005 0.116851114 -0.1496715
-0.14663492 -0.16423886 0.076226585 0.13618927 0.095922604 0.11783476 0.13491738 0.0018094626
0.18155076 0.107831255 0.20020252 0.06059695 -0.35647076 -0.28831103 -0.15509297 -0.083955534
-0.09172832 -0.05937981 -0.15515417 0.047997907 -0.04753398 0.072934374 -0.27607304 -0.020662796
0.10643511 -0.1144091 -0.012573541 0.17329918 0.10132553 0.07654126 0.07295563 0.0692535
-0.12178242 -0.17734212 0.1840331 -0.040711142 -0.05715224 0.015267889 0.04895179 -0.26444858
0.12271684 -0.03675444 0.009553287 -0.109892584 -0.029889207 0.23390771 0.057054296 0.09743688
0.013602325 -0.23902948 -0.20266072 0.12083334 -0.11591568 0.04961334 -0.18465544 0.016387668
0.20093879 0.06480126 -0.112267576 -0.2763958 -0.18472974 -0.15592302 -0.059816275 -0.1789372
-0.13316879 -0.106538735 -0.025732566 0.010327633 -0.17347643 0.08624638 -0.046416666 0.006812555
-0.0072996006 -0.025449602 0.04448871 -0.07633405 -0.15101764 -0.5576236 0.0427555 0.03200761
-0.20477399 -0.06829559 -0.017088007 0.07174169 0.05491123 0.10902985 0.13820651 0.16349594
0.09130179 -0.18638907 0.11067304 0.03409238 0.03359683 0.2469051 0.10362366 -0.21718456
0.011793127 0.14235076 0.063691095 0.13454881 -0.14590529 -0.16155893 0.18123607 0.09131819
0.06423085 0.050115228 0.2228996 0.05773594 0.076451465 -0.07661606 0.018996334 0.059445478
0.005018504 0.075337246 -0.100836016 0.019773066 0.09212439 -0.08144986 -0.0979707 -0.102196105
-0.026186386 0.021831619 0.10444799 -0.066871904 0.08986968 -0.1865472 -0.03113099 0.044098344
0.08311462 0.023878751 0.04164925 -0.1411568 -0.03421588 0.08113942 -0.05322512 0.10251204
0.13203572 -0.05213589 -0.12901711 -0.07823051 0.03963165 0.017843835 -0.0275839 -0.06093363
-0.03775744 0.0052530724 0.09433027 -0.031334847 0.096476965 -0.028190633 0.043181285 0.036425717
0.021188822 0.0579648 -0.07000403 -0.07245794 0.03390625 0.064371444 -0.07624886 0.050332464
-0.19156551 0.06340145 -0.076248474 0.063392684 0.16029856 0.055731084 0.024702784 0.07634304

fc_merge_1.bias f4 [150]
00000000: 711a 2dbe d8d5 903e 4d94 7a3e 294a 143e
00000010: f00f 0fbe 815b a3bd 610c 40bd afae 41bd
00000020: dd2f 10be fbdc 3c3e b85c 283d a85d 203e
00000030: 1c11 983e 0e84 ab3e 64f0 633e 004a 31be
00000040: c774 b83e 9aed 5c3e bb7d fbbd e35e ccbd
00000050: 6d6b 233e ac53 c7bd 7a17 e6bc d8d4 5ebe
00000060: 22f6 573e 63db 8e3e 0186 15be ed97 943e
00000070: f5b9 633d 9b3e d5bd 5b22 63be e429 8c3d
00000080: 3449 28be 40de f1bd 4078 25be 48da 153e
00000090: f64c c7bc 9f9a 46be 5a5c 1b3e 5a06 233e
000000a0: 8d1e 4b3e d501 d9bd ed56 273e 19ca 52be
000000b0: 7550 e1bd 7da0 29be 6294 303e 5349 c0b9
000000c0: 32df 623d 7780 453e 5917 46be e613 66be
000000d0: d514 903e 4e8d 9b3d f3b3 ac3e 151c bcbd
000000e0: 2cca 16be 18ce 97bd 966f b03e 2437 9a3c
000000f0: b782 87bd e63a 063e 3708 4cbc 2293 f0bd
00000100: 6450 8e3e 64ae 243e d753 363e 9cba bc3e
00000110: 5a5c 1bbe 20ef 333e ed80 373e e3fe 123e
00000120: 0994 133e 0f26 a63e f40f 55be a646 c3bd
00000130: 408e 46be a509 3c3d cebe f1bd f47c 153e
00000140: d6bb aa3e 5530 03be 6844 2cbe a0fd 123c
00000150: b8d0 12be 43a3 8d3d 2ba0 9a3e 073d ab3d
00000160: b7c1 66bd 9b8b 31bd d79b bf3e a2da dfbd
00000170: b346 5d3e 5075 14be 523a a2bd c7f4 08be
00000180: ac2b c9bd 2cc3 7dbc 2c83 503e 35f3 d0bd
00000190: 1552 623e 8b27 02be 4caf a3bd 2d51 bd3d
000001a0: f1b9 f9bd 469d 1cbd 5a2d 213e c513 8a3e
000001b0: 6ead 38be 1be6 1abe 00c7 f1bd f78d 11be
000001c0: 4b69 8e3e d679 09be d7d4 483e 631f f2bd
000001d0: 35e4 1ebe 1185 103e 2df9 9b3e d747 afbd
000001e0: 401f 803c 5088 783c b9ae 1dbe 5562 823e
000001f0: d4ab 483e 8037 11be 21c0 d63d 3113 adbd
00000200: aa1c 6d3e a5cf 183e 8392 203e ccd4 5f3e
00000210: 8c97 15bd bcb6 cfbd d653 073e bd3b 3c3e
00000220: b1f7 583e 1665 053e 0b75 67bd 40c9 cfbd
00000230: 2dab 25be dcea b1be def8 cf3d 63a5 bc3e
00000240: 5fbc 053d fa7c 1cbe 1a89 03be cb67 4c3e
00000250: 0433 b93e 8980 573e
-0.16904618 0.2828815 0.24470635 0.14481415 -0.13970923 -0.07976437 -0.046886805 -0.047285732
-0.14080758 0.18443672 0.04110405 0.15660727 0.29700553 0.33499187 0.2225967 -0.17313385
0.36026594 0.21575013 -0.122798406 -0.09979036 0.15958948 -0.09732756 -0.028087366 -0.21760881
0.21089986 0.27901754 -0.146019 0.2902216 0.055597264 -0.10412332 -0.22181074 0.068439275
-0.16434175 -0.11809969 -0.16159153 0.14634049 -0.02432869 -0.19394921 0.15171948 0.15920392
0.19835873 -0.105960526 0.16341753 -0.20584907 -0.11001674 -0.16565128 0.17244104 -0.00036675725
0.055388637 0.19287287 -0.19344844 -0.22468528 0.28140894 0.07595311 0.3373104 -0.09185044
-0.1472556 -0.07412356 0.34460133 0.018825121 -0.06616729 0.13108405 -0.01245313 -0.11746813
0.27795708 0.1608215 0.1780542 0.36861122 -0.15171948 0.17571688 0.17920275 0.14355044
0.1441194 0.3245091 -0.20806867 -0.095349595 -0.19390202 0.045907635 -0.11803971 0.14598447
0.33346432 -0.12811406 -0.1682297 0.008971602 -0.14337432 0.06915905 0.30200323 0.083612494
-0.056337085 -0.04334603 0.37423584 -0.10930373 0.21609001 -0.14497876 -0.0792128 -0.13374625
-0.09822783 -0.015488427 0.20362538 -0.10202638 0.22101624 -0.12710397 -0.079924196 0.09243999
-0.12193669 -0.038235925 0.15739956 0.26968208 -0.18034908 -0.15126841 -0.11805534 -0.14214312
0.27814707 -0.13425383 0.19612442 -0.11822393 -0.15516742 0.14113261 0.30463544 -0.08558624
0.015639901 0.015169218 -0.15398683 0.25465646 0.19596797 -0.14181328 0.104858644 -0.08450926
0.23155466 0.1492296 0.1568089 0.2185852 -0.03652148 -0.10142276 0.13215575 0.18382163
0.21188237 0.13026842 -0.056508105 -0.10145807 -0.1617858 -0.34749496 0.101548895 0.3684493
0.032650348 -0.1528205 -0.12845269 0.19961469 0.36171734 0.21045126

final_layer.weight f4 [1, 150]
00000000: 6e0e 70be 2f83 313e 33be 953e 45b7 2c3e
00000010: 77be 65be 7bd4 0fbe 06ea fabe f991 4cbf
00000020: d9a9 8fbe 5bdf 013e 0908 e93d 2a06 d13d
00000030: 2f2a 3f3e 0acd 3c3e d62a 6b3e ea47 34be
00000040: aae6 2c3e 3a3f 5b3e db14 39be fe1f 94be
00000050: e980 d43d d040 aabe 7c20 00bf 3816 91be
00000060: 9d97 673e 8c37 7a3e 9a4e c5bc 33ef 8d3e
00000070: ad12 053e 31a1 9b3e 57e3 71be 17e9 cc3d
00000080: 70c6 f2be d583 cfbe c006 88be 4811 233e
00000090: 3336 373e 0ed4 79be fcd6 183e 4611 563e
000000a0: 070f 363e ba91 3dbe 528e 7c3d ffc1 56be
000000b0: f2fd ddbe 3abe c7be d15c f93d 485e 003e
000000c0: 3a5d 573e ff0a 893e 5422 ccbe dc84 a3be
000000d0: 0e9c 693e be9b 623e 686a 2f3e 6c6e fcbe
000000e0: f07e aabe 76c7 b2be a8ae 473e 76b0 4f3e
000000f0: a054 c3be 3947 c53d 9f16 0a3e 6258 d3be
00000100: 56ff 6f3e d91f db3d 0178 f93d c2d1 2b3e
00000110: 739f 30be 6186 433e 418b 053e d847 003e
00000120: aab6 e93d 2dbb 4b3e 5e32 87be f5be 17bf
00000130: ee53 36be 03ef d23d ad8c 24be 89cc 433e
00000140: 5c19 443e da3c 21be 9e65 54be 3afd 123e
00000150: 4522 3cbe 5ab8 c93d 6a03 313e 1490 113e
00000160: 180e c6be b9b5 febe ee93 213e bc51 84be
00000170: 50b3 fc3d 7358 9cbe 23d9 3bbe e943 44be
00000180: 81ac 0bbe a296 0cbf 297d 0c3e 882a 2abe
00000190: dcba 1a3e 21d2 b1be e1c0 0ebe 0c2a 0b3e
000001a0: e1cd a6be 80e3 07bf 871f 3d3e 8f5f 503e
000001b0: 6a1e cebe af06 bcbe 9d32 20be e9ef 47be
000001c0: 1306 4d3e 6bbe 3ebe 06cb b13e 943f 20be
000001d0: 5610 c1be 30ed 453e f42b 533e 78ca cdbe
000001e0: 1b04 2f3e 198c 033e 02f0 8bbe 527f 473e
000001f0: ebc4 343e cd46 52be d769 273e 4bef 953e
00000200: 4ad2 1a3e c514 f43d ccc6 dc3d b307 b43e
00000210: 504f 54bf 36fb b0be e5de fb3d b4cc dd3d
00000220: 964e ea3d 8262 de3d bb09 0cbf d87d 4fbe
00000230: 3f99 83be f4d8 87be 06eb 503e 32c3 323e
00000240: fff4 923d facd 42be 14ad 42be 4dc0 0e3e
00000250: 82b3 343e 4451 063e
-0.23443004 0.17335199 0.29246673 0.16866787 -0.22435938 -0.14045899 -0.4900667 -0.79910237
-0.2805927 0.1268286 0.11378486 0.10206254 0.18668436 0.18437591 0.2296556 -0.17605558
0.16884866 0.21410838 -0.18074362 -0.28930658 0.1037615 -0.33252573 -0.5004957 -0.28337264
0.2261643 0.24435252 -0.024085332 0.27721557 0.12995405 0.30396417 -0.2362188 0.10005396
-0.4741702 -0.40530267 -0.2656765 0.15924561 0.17891769 -0.24397299 0.1492576 0.20905027
0.1777917 -0.18512622 0.061659165 -0.20972441 -0.43357807 -0.3901232 0.121759064 0.12535965
0.21031657 0.26766202 -0.3986994 -0.319373 0.22813436 0.22129723 0.17130435 -0.49302995
-0.3329997 -0.34917802 0.1950022 0.20282158 -0.381505 0.09632725 0.13485192 -0.41278368
0.23437247 0.10699434 0.12181092 0.16779235 -0.17248325 0.1909423 0.13041402 0.12527406
0.114117935 0.1989562 -0.26405615 -0.5927575 -0.17805454 0.10299494 -0.16069289 0.19120993
0.19150299 -0.1574587 -0.20741889 0.14354411 -0.18372448 0.098496154 0.17286459 0.14215118
-0.38682628 -0.49748018 0.15779087 -0.25843608 0.12338889 -0.3053623 -0.1834455 -0.1916653
-0.13640024 -0.5491735 0.1371962 -0.16617787 0.15110344 -0.34730628 -0.13940765 0.13590258
-0.32578948 -0.5308151 0.18469058 0.20348953 -0.4025758 -0.3672385 -0.15644307 -0.19525112
0.20021848 -0.18627326 0.34725207 -0.15649253 -0.37707776 0.19328761 0.20622236 -0.40193534
0.1709141 0.12846412 -0.2733155 0.19482163 0.17653243 -0.20534821 0.16348968 0.2928413
0.15119281 0.11918024 0.10780105 0.35162124 -0.8293352 -0.3456666 0.12298373 0.1083006
0.1144077 0.108586326 -0.5470235 -0.2026285 -0.25702855 -0.2653271 0.20402154 0.17457274
0.071756355 -0.19023886 -0.19011337 0.13940544 0.17646602 0.13116938
