policy_checkpoint.pth (torch_old, 151291 bytes, 6 tensors)

fc_0.weight f4 [200, 33]
00000000: fe9e 2b3f 87b0 243e a81d ff3e 770f 1ebe
00000010: d3f1 81be e198 3e3e 2402 b0bc 6d70 02be
00000020: 3fd1 4b3e a0e8 d93d fd0e 4f3e b737 83bc
00000030: 6d4d 70bd c38b 96bb af96 5abe 8a7c d5bd
00000040: 4e45 a4be 8ef9 a7bb 2e50 69bd 5b85 4b3e
00000050: 860d c0bd f177 b4bd 9152 33be a297 f43d
00000060: 24a7 6fbd 046c 76be 1f02 82be 06b7 b13e
00000070: c5c9 cfbd 144c 043e 6c2c bdbe 488c eb3c
00000080: 0b80 253f bee8 873e 72e1 d8bc f9a0 05bf
00000090: 18b5 2dbe 5daa 3ebc 4315 2dbd 9675 b5be
000000a0: 5965 5f3e 41eb b6be aa88 61be 1086 403d
000000b0: 26fd e0bc c9f6 00be ec3f 15bd 5bd6 c43d
000000c0: 92f7 a43e 867a 9c3c bc8a 8e3e 3664 7ebe
000000d0: cce0 e3bd 3f86 74be 26b3 21be 062b 7bbd
000000e0: f7f9 3c3d e0a8 31bd 732b bf3e 6df3 2ebe
000000f0: 56a8 213e e904 59be ea6b 04be a6cd f2bc
00000100: da3e 0e3e 26b4 0dbd 785a c5bd da3a c63e
00000110: a04e bcbd 93fe edbd d1bf 833e a3ca dd3d
00000120: 070a a53c 780e f03c 394a a23d 5381 6dbd
00000130: cd88 6abd 5c05 723e d45c 19bc ca6f 07bc
00000140: 402e b6bd 4c46 873e 2fcf 633d b3b3 0e3e
00000150: 422d 043e 1b09 d1be 9f9c 753e 722a b63e
00000160: 5ae6 91bd 4179 853e 6521 43be 5b6e 663d
00000170: fff0 84bd e10b 5e3b 8f64 92be f897 a2bc
00000180: 05a7 4ebe 80a3 243e a019 87bf be1f 223f
00000190: 6754 1b3e ccb0 1dbe 7f2b e9be 65d2 c7bc
000001a0: 53b7 943e ee35 62be e9ec 1d3e 242a b7be
000001b0: a75d 673d 35e8 633d a126 81bd 6fcf 01be
000001c0: f97e d3be 4508 b8be ccd4 823e b9c4 0abe
000001d0: 22e8 813c 51a7 9f3e 3007 d9bc 51c0 473d
000001e0: f676 443e 7df1 ec3d 676b 0abe 6bc2 19be
000001f0: d7be ed3d 10c3 243e 32fd 693e 2eda c1bd
00000200: 0680 0f3e 91ac d0bd 9883 023d 2225 e63e
00000210: 2d4e f23e ba75 093f 0f4c 21bf df4e 24be
00000220: 477c df3d 6645 7cbe c500 a7bd b994 363d
00000230: 0b35 fabd 6c46 a83e b9fd 743b db95 01be
00000240: aaeb 8ebd 3cbd 3cbe 3592 e7be 994c 903e
00000250: 797b 17be 1718 96bd 82f1 a0bd 7423 afbd
00000260: 4990 0fbc ddd2 33bd eb14 0a3d 5aec 9d3d
00000270: 535b ffbd 8923 ebbd 7901 443c 1cf5 223e
00000280: 5b97 25bc b6ac 913d 5a83 a2bd 84c4 2b3e
00000290: 7b89 553f 5a8a 2bbe 5b5b a53d 7fb8 e63e
000002a0: 0baf a4bd 5414 23be f10a 33be 2c05 2c3e
000002b0: 4aaf 42be 407e 873e 296c 57be 5b7e 82bd
000002c0: b73d 453c 7553 82bd a59f 0e3d 58f4 3e3e
000002d0: e8ae 1bbf de62 9a3d 6df9 123d e82d 62bd
000002e0: 4c16 d23d fb5f 72bd 78eb 1ebe 7410 8abe
000002f0: 5773 12be 7d10 fe3c 8334 81be 7b5d 813e
00000300: 130a 9c3e 35fc acbd 1c68 32bd a9e9 88be
00000310: 9443 2f3d 465a 153f d88d b7bc ce05 2e3e
00000320: 6d84 d8bd 4942 3ebb 032e dfbd 09d1 96bd
00000330: dd58 313c 8e66 3b3e 0c1b 9b3e 3cc0 e73c
00000340: 4435 353c 2a66 0f3e eba8 cfbd 0c78 803e
00000350: 0a27 d13e 68f7 41be 09bd 463d 1e03 a93b
00000360: 817c 18bc e7ed 583d 50c8 84bd 2ea6 80be
00000370: de6d 8a3e 93e0 8a3c 50a9 c73d 46b5 95bd
00000380: 718b c5be 6006 29be 81a2 893d 16a5 b2bd
00000390: b440 0abe 926c 0a3e 49be 5b3f e717 ba3e
000003a0: 20e1 4c3e 226f 03bd f5ae 3f3d 421c d13d
000003b0: e508 ebbd 885a a73c 4c8d 7cbd bc8e 833d
000003c0: fe8f f63e d6b6 8c3e 0127 1dbd a8f5 e53d
000003d0: 7e90 6dbd cf6b 113e 9359 333e 0787 b9bd
000003e0: 7b62 efbd 89c9 103d 2fbd 0e3e 5d0d 93bb
000003f0: 104a 29be 6976 74bd 190e 3a3e b6e9 0bbd
0.6703948 0.16082965 0.49827313 -0.15435587 -0.2537981 0.18613006 -0.021485396 -0.127382
0.1990404 0.10640073 0.20220561 -0.016017778 -0.05866759 -0.0045942976 -0.21346544 -0.104241446
-0.32084125 -0.005126185 -0.05696123 0.1987509 -0.093775794 -0.088119395 -0.17511965 0.11942984
-0.058509007 -0.24064642 -0.25392243 0.34709948 -0.10145906 0.12919647 -0.36947954 0.028753415
0.64648503 0.26544756 -0.026474688 -0.5219875 -0.16963613 -0.011637297 -0.042256605 -0.35441273
0.21816005 -0.3572636 -0.2202479 0.047002852 -0.02746446 -0.12594141 -0.036437914 0.096111976
0.3222013 0.019101392 0.2784022 -0.24842915 -0.11126861 -0.23879336 -0.15790996 -0.061320327
0.046136823 -0.043373942 0.37337837 -0.17085047 0.15786871 -0.2119328 -0.12931791 -0.029639076
0.13891163 -0.03459563 -0.09636396 0.38716775 -0.09194684 -0.11620822 0.25732282 0.108296655
0.020146383 0.029303774 0.07924313 -0.05798466 -0.05725937 0.23634857 -0.009360511 -0.008266399
-0.0889554 0.2642082 0.055617508 0.13935737 0.1290789 -0.4082726 0.23985527 0.35579258
-0.07124014 0.26069072 -0.19055708 0.056257587 -0.06491279 0.0033881592 -0.28592345 -0.019847855
-0.201809 0.16077995 -1.0554695 0.63329685 0.15168916 -0.15399474 -0.45540997 -0.024392316
0.29046115 -0.22090885 0.15422405 -0.35774338 0.0564858 0.05564137 -0.06306196 -0.12676786
-0.4130781 -0.3594381 0.25552976 -0.13551606 0.01585776 0.3118234 -0.026492685 0.04876739
0.19186005 0.11569498 -0.13517533 -0.15015571 0.116086654 0.16090035 0.22850493 -0.094654426
0.14013681 -0.101891644 0.03186378 0.44950205 0.47325268 0.5369526 -0.6300668 -0.16045712
0.10912376 -0.24635848 -0.08154444 0.044575427 -0.122171484 0.32866228 0.0037382676 -0.12654822
-0.06978543 -0.18431562 -0.45228735 0.2818344 -0.14793195 -0.073288135 -0.07858564 -0.08551684
-0.008762428 -0.043902267 0.033711355 0.07711096 -0.124685906 -0.11481387 0.011963242 0.15913814
-0.010106887 0.0711302 -0.079352096 0.16774184 0.83412904 -0.16751996 0.08074065 0.45062634
-0.08041199 -0.15925723 -0.17484643 0.16798848 -0.1901218 0.2646351 -0.21037354 -0.06371757
0.01203864 -0.063635744 0.034820218 0.18647897 -0.6081376 0.07538389 0.035882402 -0.05521956
0.10258159 -0.059173565 -0.15519512 -0.26965678 -0.14301811 0.031013722 -0.25235376 0.25266632
0.30476436 -0.08446542 -0.043556318 -0.2674077 0.042789057 0.5834087 -0.022406504 0.16994402
-0.10572133 -0.0029031208 -0.10897448 -0.07364089 0.010824409 0.1830084 0.30294073 0.028289907
0.011060063 0.14003816 -0.101396404 0.25091588 0.40850097 -0.18942034 0.04852012 0.0051578423
-0.009307028 0.052961256 -0.06483519 -0.25126785 0.27036947 0.016952788 0.09749091 -0.07309966
-0.38582948 -0.16506338 0.06720448 -0.08722894 -0.13501245 0.13517979 0.8583723 0.3634636
0.20007753 -0.032088406 0.04679771 0.10210468 -0.11476306 0.02042891 -0.06165819 0.06423709
0.48156732 0.27483243 -0.038367275 0.11228496 -0.057999127 0.14201282 0.17514639 -0.090589575
-0.116887055 0.03534845 0.13939355 -0.004487677 -0.16532159 -0.059683237 0.1816944 -0.03415843

fc_0.bias f4 [200]
00000000: c859 bdbe 1b43 cb3b b223 38bd bbcd acbe
00000010: 3951 b2bd 3e46 8cbd f70b eabc 6c64 b6be
00000020: e32a 43be dd1a a1be 6ec2 67bd 7e7d b2bd
00000030: 670c dabd ab5f a2be a118 84bd 0b12 23bd
00000040: 613b a5be 219e 13bd d881 a0be 1239 313e
00000050: 2220 aabe 834e cfbd 9b8e 6abe 63ee aabe
00000060: 67b1 aebe 2b94 64be 9c0e 5abc dac3 5bbe
00000070: afad fd3d e98f b5bd 2466 a1bd 3b52 aebe
00000080: 5950 35be 2403 3bbd 0fc7 b2bd 7fe2 273d
00000090: eb1b 81bd 027b 263c 22e4 6ebe e3c5 5cbe
000000a0: 675b 5abe 84f4 4dbe 0abd 09be ecfc 00be
000000b0: 5182 6abe a6a8 bfbd 889e 63be 0609 58be
000000c0: 198b 3dbd 8142 1ebd 3e41 ddbe 803a e6be
000000d0: ea8d f7bc f2ab 35bd 87f0 c6bd d2f4 e5be
000000e0: 9077 debd fe9b 35be 4e01 c3bd 60df 55be
000000f0: 7f3b dbbe 0691 99be 4d8f ccbd 6e73 c5be
00000100: 8013 64be 0250 46bd c5ac 41be 27cb 4bbe
00000110: 5f71 06bf 9786 8abd 1efc 103e 52ed c2bc
00000120: 5c0a 32be 4c67 b73d f9de 17bc c565 63be
00000130: 30ee 85bd 5e9e 57be 8127 d0be 24ac 1cbd
00000140: 6721 1bbe a8f8 d4bd 7028 54be 1255 bebe
00000150: 5087 903d a9fa 52be 8631 82be 1399 1ebe
00000160: 367b 09be da9d 8e3c 1fbe 05be 77f5 ebbe
00000170: b329 abbe 7cb6 b6be 5cdb 233e 8bc6 423d
00000180: 8a24 8bbe fdaa 583c 666e fb3d a359 38bd
00000190: 0769 773b ffe3 36be 1850 cfbe 349b e0bd
000001a0: 879e c7be b058 bbbe 4976 96be c338 19be
000001b0: 84e4 3abe 5556 1fbe 7607 2dbe 834e a3bd
000001c0: a2a1 3ebc a625 9dbe 8bfb db3d c966 b73b
000001d0: 3652 64be 1485 acbe 98dc 31be fc4d a4be
000001e0: b95e 97bd 7e48 adbd 5320 d7bd 7b5c e9bd
000001f0: ec6e 68be 1a6a 5bbe 43ed a8be 13ca 3fbd
00000200: 8fba 3e3c 28ce 33be f845 93be b6fb b1be
00000210: 2107 acbe 3c95 81be 950d 7ebe 41cd 36be
00000220: 1853 a1bc b1e5 563b a1a1 9cbe 4e78 313e
00000230: f0db edbd 1ac9 60ba 62d0 abbe 7cb7 1bbe
00000240: fdb8 95be eba4 9fbd 8d1e 5ebe 440c 19be
00000250: 7fec bfbe fbab 41be 3dd7 8cbd 1663 62be
00000260: be61 adbe 88fe a53d c789 52be aa95 a43d
00000270: ffbc 5dbe b1a5 35bd 86d0 063d 8194 b3be
00000280: 2e72 2cbe 8752 2bbe 1ac8 8fbd 9f47 18be
00000290: c236 1a3d 13b8 0d3e 9342 47be b46a 17be
000002a0: c48f 5dbd 27ed efbd d6a1 a4bc 14a7 4ebe
000002b0: f600 803e ed32 c0bd b9a3 8dbd b263 d7bc
000002c0: 2bbe f1bd 4ee6 71be 73c5 cfbd 0694 45be
000002d0: 7205 6c3e 7412 d3be bf73 20bd ad35 41be
000002e0: 6334 94bd 60f6 6cbe ca00 47be 2eb5 dc3d
000002f0: bc0a 87bc 4bfa 49be c4fb 33be 1005 0abf
00000300: 2360 b3be f72a bcbe dd1a b0be fa5c 98bd
00000310: 2dfc 3dbd c735 d2be f0d4 92be a4fc 64be
-0.3698256 0.006203068 -0.044955917 -0.3375071 -0.08706898 -0.06849335 -0.028570158 -0.3562349
-0.19059329 -0.31465808 -0.056581907 -0.08715342 -0.10646897 -0.31713614 -0.0645001 -0.03981213
-0.32271865 -0.036039475 -0.31349063 0.17306927 -0.3322764 -0.10122397 -0.22905962 -0.33385
-0.34119722 -0.22322147 -0.013309147 -0.2146143 0.12386643 -0.08865339 -0.0788081 -0.34047112
-0.17706431 -0.045657292 -0.08729374 0.040987488 -0.06304153 0.010161163 -0.23329213 -0.21559863
-0.2132393 -0.20112807 -0.13451019 -0.12596482 -0.22901274 -0.09358339 -0.22228444 -0.21097192
-0.046275232 -0.03863764 -0.43213838 -0.44966507 -0.030219037 -0.044353433 -0.09713846 -0.44913346
-0.108626485 -0.17735288 -0.09521733 -0.20885992 -0.4281883 -0.29993457 -0.0998827 -0.38564628
-0.22273064 -0.048416145 -0.18913563 -0.19901715 -0.5251674 -0.06763952 0.14158675 -0.023794804
-0.17386764 0.08955249 -0.009269469 -0.22206791 -0.06539571 -0.21056506 -0.4065514 -0.038250104
-0.1514946 -0.1039899 -0.2071855 -0.37174278 0.07057059 -0.20603432 -0.25428408 -0.1548808
-0.13425907 0.017409254 -0.13060807 -0.46085712 -0.3343025 -0.356861 0.16001648 0.047552627
-0.27176315 0.0132243605 0.12276916 -0.04500736 0.003775181 -0.17860411 -0.40490794 -0.10967103
-0.38988134 -0.365911 -0.2938712 -0.14963059 -0.18251234 -0.15560277 -0.16897377 -0.07973959
-0.011635216 -0.30692786 0.107413374 0.0055969697 -0.22296986 -0.3369528 -0.17369306 -0.32090747
-0.07391114 -0.084610924 -0.10504212 -0.113945924 -0.22698563 -0.21427193 -0.32993516 -0.046823572
0.011641159 -0.17559111 -0.2876432 -0.34762353 -0.3359919 -0.2530917 -0.24809869 -0.17851736
-0.019692943 0.0032790715 -0.30592063 0.17331049 -0.116142154 -0.00085748883 -0.3355742 -0.15206712
-0.29242697 -0.077951275 -0.21691342 -0.14946085 -0.3748512 -0.18913262 -0.06876991 -0.22108111
-0.33863634 0.081051886 -0.2056037 0.08036359 -0.21654128 -0.04434747 0.032913707 -0.35074237
-0.16840431 -0.167307 -0.07020588 -0.14871071 0.037649877 0.1383975 -0.1945899 -0.14786798
-0.054092184 -0.11715155 -0.0200967 -0.20180923 0.25000733 -0.09384713 -0.06915993 -0.026292656
-0.1180385 -0.2362301 -0.10145082 -0.19294748 0.23048952 -0.41225016 -0.039172884 -0.18868132
-0.072365545 -0.2314086 -0.19433895 0.10776745 -0.01648461 -0.19724385 -0.1757651 -0.53913975
-0.35034284 -0.3675153 -0.34395495 -0.07439609 -0.04638307 -0.41056654 -0.28678083 -0.22362

fc_1.weight f4 [150, 200]
00000000: 2710 94bd 30fc a2bd 2e11 05bf 0411 8cbd
00000010: 0838 8dbe 23dc e03d 9266 a03d c8e4 f6bc
00000020: 5a3d 5b3e 9440 8e3d cb3c 22be d33c 08be
00000030: e21b fb3d 6fe1 963d 14bc 713e 0964 b43d
00000040: 7980 41be b51a 40be 05ad d8bd 626e 36bb
00000050: d4ff c9bd 26cd 863e d692 b13b e25a 41be
00000060: 0619 4e3d 4a88 c13d 7301 5bbe e16a b13d
00000070: 4ace 703e 9d7c 2cbe 4b29 563e 22f7 12be
00000080: da81 d0bd 5120 633d 9bd1 df3d 9cb2 873e
00000090: ddb0 8d3c 17b3 57bd 3497 913d 871d b8be
000000a0: 45a2 f7be de92 58be cf02 acbe 678e 6ebe
000000b0: a7ca 223e dff7 0e3e ca46 243e b9d5 95bc
000000c0: 4143 203e 3b3d 273e 07b8 803e 5a34 60bf
000000d0: 349e a93e d928 0abf 0dcc 903e 1729 113e
000000e0: c9f6 43bb 8e27 10bf d763 18be 3970 1b3e
000000f0: 959e afbe 4419 f23d b329 4b3e a936 3d3e
00000100: edab 5ebe 0f50 b1bd fc9f d03d 60e9 2c3e
00000110: e9ce c0be aadc da3c 5ecb 62bc e347 3bbe
00000120: b198 60bf ac9a 343e 33e4 693d 7ace c43e
00000130: c0d9 3abe e573 1b3e 439b de3d 4d2d e43d
00000140: d5d5 84be 42ee 6e3e 5f18 033e cf07 fa3d
00000150: 0adf b43e ce27 f13c a060 563d 1740 d13e
00000160: a28a c4be fe2b 94be fba9 543d be58 16be
00000170: 151a 12bd 658e 0c3e 7308 8abe c188 a2be
00000180: a1ce 1a3d 6f97 ecbd 4c2e f3be 343a 863e
00000190: 2319 093e 4f5e ccbd 463e af3d 1020 c1be
000001a0: 6aa4 d13c 6707 e2bd 1a9e f73d 8bb7 773d
000001b0: 0340 1dbe a94c c5bc 9888 51be c7ac a03d
000001c0: 733f febd 2a7d e2be 8856 d03d e365 21be
000001d0: 31bf 87bd 24f0 f6be 50b9 5ebc db35 9dbe
000001e0: b817 923e 22ed f2bd 996c b73d e0f3 c93d
000001f0: ac59 9a3d a0a8 2cbe 3035 33bf 2064 9fbe
00000200: af4f 263e c998 953d fd0a 083e 53ff 093d
00000210: 67b6 3dbe e4b1 1e3e baf7 ba3d a073 113c
00000220: 4c8c ebbd 4cf4 35bc cf59 bebe c51a d9bc
00000230: eaf8 123e 2b31 f6be 536a 2ebd e8a5 6ebe
00000240: 5666 bebe 02e5 47be 8572 3abe d190 af3d
00000250: b7c4 bdbe ae46 f93d c03f 57be 78c2 79be
00000260: 150b 5fbe 3f27 efbc c9ff 0bbc 15d0 2a3d
00000270: f2aa 73be dc8e 4cbd 7e17 b2bd 7f13 20be
00000280: 821e bd3c 47eb 1e3e de99 593d c43b 42bd
00000290: 293e 8dbe d518 95bb d9e6 5e3e 31f1 2e3e
000002a0: 4d7d d53e ec03 3dbe 2635 fc3c 1042 1c3e
000002b0: 891b 0e3e c8b4 8dbc 20a8 913b 003d 15bf
000002c0: 9f58 03bf f32f 9d3e 1bba c6bd e1da 083e
000002d0: da06 ecbc eeb0 2b3e 684f 0dbf 6ea6 1c3e
000002e0: b8c0 76be 1c4f 1cbd 82e6 c5bd 7d8e 7dbe
000002f0: 24c9 a2be ecb7 563c 08f3 47be acfa 2e3c
00000300: fbaf 02be d957 d13d ba56 bbbe 3f3b 37be
00000310: 1675 77be e17b 52be ac03 3dbf 5bc9 63be
00000320: bac9 c13d 96db 873e 2288 3abc 6190 063f
00000330: 2a85 d63d 59a7 4a3e 4654 b8bd 1e15 d0bd
00000340: b3f7 e33e e552 ae3e cb28 f0bc d622 133e
00000350: 59ff 683e 586d 81bc 97af 8cbe db89 8fbd
00000360: 62c8 ffbd b76a cabe 27f8 21bc 8dff b7bd
00000370: 9ecd f4bd e59f 0b3c 5726 8dbe 705b edbd
00000380: 390e 02be 94a8 9d3d 14a4 0f3d 613e 273e
00000390: 34c4 dbbd e12e 21be 61cf 81be 2591 313e
000003a0: 74f1 4a3d 87f1 9a3d 95f1 6a3e 9c7d 773e
000003b0: e970 bbbb 6c07 c2bb 609f 42be a33b 3e3d
000003c0: 02e9 55bf 1a60 71bd 1159 91be baa8 953b
000003d0: f79a eebd 146a 2bbd 693f d0bd 2d9a 533e
000003e0: 678c 04bf 5c95 57bd fd70 a6be aeeb 0dbe
000003f0: 44f5 973d fe8e 97be fa45 e83d 3a84 90bd
-0.07229643 -0.07958257 -0.5197934 -0.06839183 -0.2758181 0.10979488 0.07832064 -0.030138388
0.21410123 0.06945911 -0.15843503 -0.13304453 0.122611776 0.07367217 0.23606902 0.08808143
-0.18896665 -0.18760188 -0.10579876 -0.002783679 -0.098632485 0.2632839 0.0054191155 -0.18882325
0.050316833 0.09449823 -0.21387272 0.08662964 0.23516193 -0.16844411 0.2091419 -0.14352086
-0.10181017 0.05545074 0.10928651 0.26503456 0.017296249 -0.052661028 0.07108918 -0.35960028
-0.4836599 -0.21149775 -0.33595893 -0.2329651 0.15897618 0.13961743 0.16042629 -0.018290387
0.15650655 0.16331951 0.25140402 -0.8757988 0.33128512 -0.5396858 0.28280678 0.14175831
-0.0029901734 -0.56310356 -0.14881836 0.15179528 -0.34300676 0.11821225 0.19840126 0.18477882
-0.21745272 -0.08657848 0.101867646 0.168859 -0.3765786 0.026716549 -0.013842432 -0.18289141
-0.8773299 0.17637128 0.057102393 0.3843878 -0.18247128 0.15180929 0.108694576 0.11141453
-0.2594439 0.23333076 0.12802266 0.122085206 0.35326415 0.029437926 0.052338243 0.4086921
-0.38387018 -0.28939813 0.05191992 -0.1468229 -0.035669405 0.13726194 -0.2695957 -0.3174496
0.037794713 -0.11552321 -0.4749626 0.2621628 0.13388495 -0.099789254 0.085567996 -0.37719774
0.025591094 -0.11036568 0.12090702 0.060477775 -0.1535645 -0.024084406 -0.20462263 0.07845455
-0.12414446 -0.44236118 0.101727545 -0.15761523 -0.06628264 -0.48230088 -0.013593987 -0.3070515
0.2853372 -0.11861636 0.0895626 0.098609686 0.07536635 -0.168612 -0.7000303 -0.31131077
0.16241334 0.07304532 0.13285442 0.03369076 -0.18526612 0.15497547 0.09129281 0.008877665
-0.11501369 -0.011105608 -0.37177894 -0.026502023 0.14352766 -0.48084387 -0.042581867 -0.23305476
-0.3718745 -0.19520953 -0.18207748 0.085725434 -0.37064144 0.12171684 -0.21020412 -0.2439059
-0.21781571 -0.029193519 -0.008544871 0.04170235 -0.23795679 -0.04994093 -0.08695887 -0.15632437
0.023085836 0.15519439 0.053125255 -0.04742028 -0.27586487 -0.0045500793 0.21767749 0.17084195
0.4169716 -0.18458527 0.030787062 0.15259576 0.13877691 -0.017298117 0.004445091 -0.58296204
-0.513071 0.30700645 -0.097034656 0.13364746 -0.02881186 0.16766712 -0.5519929 0.15297863
-0.24096954 -0.038161382 -0.096631065 -0.24761386 -0.31794083 0.013105374 -0.19526303 0.010679882
-0.12762444 0.10221834 -0.36589605 -0.17893694 -0.24165758 -0.20555069 -0.7383373 -0.2224478
0.094623044 0.26534718 -0.011384996 0.52564055 0.10474618 0.197904 -0.09000449 -0.10160278
0.44524917 0.34047619 -0.029316327 0.14368758 0.22753657 -0.01579921 -0.27477714 -0.07008716
-0.12489392 -0.39534542 -0.009885824 -0.08984289 -0.11953281 0.008522009 -0.27568313 -0.11589706
-0.12700738 0.07698169 0.035068586 0.1633239 -0.10730782 -0.15740539 -0.2535353 0.17340524
0.049546674 0.07565599 0.22943719 0.2416901 -0.005720247 -0.005921295 -0.19006109 0.046443593
-0.83558667 -0.05892954 -0.28388265 0.004567233 -0.11650651 -0.04184921 -0.101683445 0.20664282
-0.51776737 -0.052632675 -0.32508078 -0.13859436 0.074198276 -0.29601282 0.11341472 -0.0705647

fc_1.bias f4 [150]
00000000: 3c56 1bbe 39d5 a4bd aa4f 6dbb cdd4 573d
00000010: 661f 30be 79eb 28bd b6f8 ddbd 1401 acbd
00000020: 020f 073a 170b 913c 7afc 84ba 3bb8 c2bd
00000030: 3ac0 aabe 9d13 06be fea6 12be 50e6 dcbd
00000040: c730 30be 04c6 a0bd a994 8cbe faa6 8ebc
00000050: fbea 1fbe 12b8 6dbd f914 0a3e 2d53 a9be
00000060: 4149 213d 2ecc f3bc 573e 94bc 51d9 c5bc
00000070: b585 1c3e f7df 1fbd 69db 52be ed3d 3f3d
00000080: 9567 7bbd 5453 123d ae26 0bbe 3405 3cbd
00000090: 6e6e 34be 4fe8 f9bb 08fc 43be 3d9e 083d
000000a0: 46fe 3bbe 7ffc 09bd fb77 09be e114 d9be
000000b0: b9a9 5bbe d01c 0f3c 85a3 97bd 619d bc3d
000000c0: 93f0 c83d e768 b1be af4b 4dbe f5e9 0fbe
000000d0: 90cb aebd d67a da3c e64c 3dbd 166d 803d
000000e0: 6bbd 07be 12b8 37be 0321 30bd 1c75 6f3d
000000f0: d69c 5abd b6ad 4bbe 7311 c83c de66 e93c
00000100: e44f babc 09ad 0fbd e8b0 233d f708 a2be
00000110: 4d82 2fbe f42e 943d 0d27 56b9 006c 0dbd
00000120: c25d 22be 89b5 73bd e6cc 86bd 01b6 383d
00000130: 71cd 093d 48e8 20be 138d f4bd c9ba 98bd
00000140: 8e7d bbbd daa1 c93c 1e62 a4bd b1f0 ed3c
00000150: d9b1 97bd a0df 2bbe 7c57 97be 9678 8abd
00000160: 72f7 67bd 0594 30be 0b50 fabc 38dc adbc
00000170: ec0a a93d 7138 163e 146d 31bd 2ce4 f43d
00000180: 159c fabc 07b9 76be 3c33 863d b934 2bbd
00000190: f1f7 6abd c90d c9bd 1dc2 36be 10e1 babd
000001a0: 4c2d 15be ae1f 4cbe 7c5a 86bc b3a0 fabd
000001b0: 9670 f9bd 3828 7cbe 2e67 2cbc fa9b 39bd
000001c0: 4b1c bb3d 004b 48be b9ed db3b 1347 9a3c
000001d0: 509d 773c c2b0 bb3c 535c 3dbe 9dd7 d7bc
000001e0: bcb2 a9bd b486 0fbe f083 6dbb cabb b7bd
000001f0: 4026 d4bd e1ab 6dbe d859 05be 7fe8 36bd
00000200: c4d4 763d ee6d 92bd ed71 fabd 89f3 0fbe
00000210: 3fad fa3d b502 10be 0ba3 b0bd c0ff 4e3c
00000220: d10e e5bd e69d fc3b 8c5e d2ba fe41 c6bd
00000230: abb5 9abd 9270 85bc 4948 e6bd 7f8d 73bd
00000240: 3bb9 81bd 9ce0 49bd 6510 8dbd e2ad 233e
00000250: 6046 b4bd e7de 85bd
-0.15169615 -0.080484815 -0.0036210814 0.052693177 -0.17199478 -0.04124019 -0.108384535 -0.08398643
0.00051520776 0.017705483 -0.0010146045 -0.095077954 -0.33349782 -0.1309342 -0.14321515 -0.10786116
-0.17206107 -0.078502685 -0.2745717 -0.017413605 -0.15616982 -0.05803687 0.13484563 -0.3307127
0.0393765 -0.029760446 -0.018096132 -0.024151476 0.1528538 -0.03903195 -0.20591511 0.046689916
-0.06137808 0.035724 -0.13588974 -0.0459034 -0.1762025 -0.0076265703 -0.19139111 0.033354033
-0.18358716 -0.033688065 -0.13424675 -0.42398742 -0.21451463 0.008734897 -0.07404236 0.09209705
0.09811511 -0.34650347 -0.20048402 -0.14054091 -0.0853492 0.0266699 -0.046215914 0.062708065
-0.13255851 -0.17941311 -0.043000232 0.058461294 -0.053372227 -0.19890484 0.024422383 0.028491434
-0.022743173 -0.03507713 0.039963633 -0.31647465 -0.1713955 0.07235518 -0.00020423178 -0.034526825
-0.15856078 -0.059499297 -0.0658205 0.045095447 0.03364319 -0.15713608 -0.1194097 -0.074575014
-0.09154807 0.02461331 -0.08026527 0.029045435 -0.074069686 -0.16784525 -0.29558933 -0.06761281
-0.056632467 -0.17243965 -0.030555746 -0.021223173 0.08254036 0.14669968 -0.043316916 0.11957583
-0.030592004 -0.2409402 0.06552741 -0.041798327 -0.05736536 -0.098170824 -0.17847486 -0.091249585
-0.1456806 -0.1993396 -0.016400568 -0.12237682 -0.12179677 -0.24624717 -0.010522647 -0.045314766
0.09136256 -0.1955986 0.0067116884 0.018832719 0.01511319 0.022911433 -0.1849225 -0.02634793
-0.08286044 -0.14016229 -0.003624197 -0.08971365 -0.10358858 -0.23210098 -0.13022554 -0.04465532
0.060261503 -0.07149874 -0.12228761 -0.14057745 0.12240075 -0.14063533 -0.08624848 0.012634218
-0.11184467 0.0077092526 -0.0016049906 -0.09680556 -0.07554182 -0.01628903 -0.11244256 -0.059461113
-0.06334158 -0.04928647 -0.06887893 0.159843 -0.088024855 -0.06536656

action_output.weight f4 [4, 150]
00000000: 5172 8dbe c481 663f 6b18 123d 91b3 f83d
00000010: 4386 fb3e 8082 3ebd 2ba7 1cbe 0cd9 9ebe
00000020: 720a 1ebe 47c0 a33d 2965 90be 42ed d9bb
00000030: 29d7 93be 8208 fe3d 95aa 0b3f 41b8 413e
00000040: 34bc 723e 89da 94bd 5c8d a8be 12c9 a33d
00000050: 6601 1fbf 20da 15bf 716c b53e 78d4 643f
00000060: bda3 4dbe f22a f23e 6b4d c6bc 34b6 2d3e
00000070: b0bc 703e f925 633f 5880 95be b501 a33d
00000080: 6db7 e0bd 6a74 013e 70b8 9dbe 0bee 4b3d
00000090: fa3b cdbd 0b01 513e 56bf 9fbe 2c79 3e3d
000000a0: 3d90 38be d165 423b 2e68 26bf c24c d63d
000000b0: 10ad 183e 27e7 063e 213b a9be fd4c 65bd
000000c0: 06f1 1f3e 6a6e b13e c31a b4bd 17ad b5be
000000d0: 4468 8ebe dc80 1d3e 726d 7b3e a4d3 6fbf
000000e0: 8165 87be 6e09 f1bd cc1c d13b 1fee 00bf
000000f0: d937 8a3d 9390 1abf 9a43 af39 6ae6 a63e
00000100: 4414 6a3e 10c9 27be 44ca eabe 26ca a73e
00000110: bb60 c0be 1773 143f 2124 88be 56b6 af3e
00000120: e06d 0f3e 8045 3ebe 5ad7 e8be 413b 86be
00000130: 3334 b53e ba02 9fbf 7f87 81be f576 cc3e
00000140: b9a6 e93e 88ba 60be a00e 11bf 1772 c33e
00000150: 0ed7 f3bd 38eb cf3e cf3a 53bd 4dbd 98bc
00000160: 48cb b33d 3139 173e c684 073e dbf1 b43d
00000170: b16c 713e 3e75 163e 1277 f1be e97e 8abd
00000180: 876f db3d 3cc3 21bf a1b9 e93c a0b0 a3be
00000190: fb22 073f e6e5 e63e 5387 05be 9c77 e23d
000001a0: 0fcc d7bc 8635 5dbf b08a 6fbe bbea aa3c
000001b0: 3146 7abe 0288 17bf 76c8 dd3e 729f 8d3c
000001c0: bc8e 7d3e 246d a73d 0793 0f3d a247 49be
000001d0: aa17 5d3d 2944 9e3e e430 6c3e 6b44 08be
000001e0: 5cda 433f f8e2 1b3f 548e be3c 81e5 413e
000001f0: c24d aa3e 812a 06bf 3e97 d73c db3d 53be
00000200: 8f1b d53d 3476 273f 3901 2e3e 0c82 09bd
00000210: c0fd a83d 9f6e 533e 9c80 84bf 4628 31be
00000220: cf3b 613d 5648 c1bc 4fd6 ea3c 1069 d7be
00000230: 6f8c 163d 3157 5e3e be41 17bf 9a4f adbd
00000240: 3b34 af3e 847e 0abe b5b0 1cbe 4371 343f
00000250: d30f ec3e 6721 1bbf 11bb 97bf ad5a 9c3c
00000260: 5149 173e fbc5 ab3e 21eb 263e 3b18 223d
00000270: 640b c93d f45a 953e 5f51 5d3d f48c 7bbe
00000280: 5d23 193e af7d 0dbe 84d8 b13e 0054 25be
00000290: d101 853e 4839 033e 9e9f 09bf b566 1fbe
000002a0: 5091 c4bd 9123 593e d600 a4be ea9a 253e
000002b0: a52f ab3d 7111 d13e f425 95be a1fd 8d3e
000002c0: 5358 9b3c 534a e9be 7680 8bbd ade7 18bf
000002d0: 5e43 e6bc b1f6 37be 7ba7 853e be35 1a3e
000002e0: 563a 8cbd 1809 f03c cd95 9c3e 5951 7ebd
000002f0: dbb2 d3bd 64e5 e63c 4833 1e3c e717 b23e
00000300: 5b46 89be 1a2e 5dbe 9bee d83d 5445 003d
00000310: f270 61be 4857 81bd 3824 413c bbde 6abe
00000320: 0a13 57bd f490 9d3c a1da 3e3e 0b53 1abe
00000330: a3a3 58bf da77 10be 1d61 1dbf a023 b83e
00000340: 15f2 95be 00fc 61bd fd5a adbe 0d85 bf3e
00000350: 4574 d7bd 6c75 84be 638a c03e d17e ffbd
00000360: 5a9d d33d 4934 cdbe 4b65 e4be 1ef3 a9bd
00000370: 18f1 d93d c769 0bbe 6357 10be 714b fcbd
00000380: f352 93be 0667 203d 58c0 8dbe f691 993e
00000390: 1f2f bf3d 669c e13d cc7b aabd 087a 5e3e
000003a0: 9bb8 abbb ee54 abbd 1ccc 69be cdf0 bf3e
000003b0: 9c07 343e 3108 2e3d 94d4 053e 12c8 c23d
000003c0: 7880 893d 389d 47bd bf0e b3bd 48c1 ef3d
000003d0: 274d d2be 84bf 6ebe b938 f33d 86e8 643e
000003e0: 93e7 323e 7329 99be 87c3 cd3e 4362 5cbe
000003f0: 82c1 043e 900f 933d 6bc1 b13b 9abc c53e
-0.2762628 0.90041757 0.035667818 0.121436246 0.4912587 -0.046511173 -0.15298145 -0.3102497
-0.15433672 0.07995658 -0.2820218 -0.006650598 -0.28875092 0.124039665 0.5455716 0.18917944
0.23704606 -0.07268245 -0.3292035 0.079973355 -0.6211151 -0.5853596 0.35434297 0.893867
-0.20081992 0.4729839 -0.024206838 0.16964036 0.23509479 0.88729817 -0.2919948 0.0795931
-0.10972486 0.12642065 -0.30804777 0.049787562 -0.10021205 0.20410554 -0.31200665 0.046502277
-0.18023773 0.0029662738 -0.65002716 0.10463859 0.14909768 0.13174115 -0.33052924 -0.055981625
0.15619287 0.34654552 -0.08794167 -0.3548362 -0.27813923 0.15381187 0.24553469 -0.9368231
-0.2644463 -0.11769377 0.0063816067 -0.50363344 0.06748933 -0.6037685 0.00033428968 0.32597667
0.22859293 -0.16385293 -0.4585744 0.32771415 -0.375738 0.57988113 -0.26590064 0.343188
0.14006758 -0.185812 -0.454768 -0.26217082 0.35391387 -1.2422707 -0.25298688 0.39934507
0.45635012 -0.21946156 -0.5666294 0.3817298 -0.11906253 0.40609145 -0.051569756 -0.018644953
0.08779007 0.1476791 0.13234243 0.08835193 0.23576619 0.14693162 -0.47161156 -0.067624874
0.107146315 -0.6318853 0.028530898 -0.31970692 0.5278775 0.45097274 -0.13039903 0.1105797
-0.02634242 -0.86409795 -0.23392749 0.020863881 -0.24440838 -0.59191906 0.43317002 0.017287944
0.2476148 0.08175114 0.035052326 -0.19656232 0.053977646 0.30911377 0.23065525 -0.1330735
0.76505065 0.608932 0.023261227 0.18935205 0.3326245 -0.52408606 0.026317235 -0.20629065
0.10405647 0.6541474 0.16992654 -0.033571288 0.08251524 0.20647667 -1.0351748 -0.1730052
0.05498868 -0.023594063 0.028666643 -0.42072344 0.03675502 0.21712948 -0.5908469 -0.084624484
0.34219536 -0.13524824 -0.15301783 0.70485324 0.46105823 -0.6059784 -1.1853963 0.019086206
0.14774062 0.33549485 0.16300632 0.03957389 0.09816626 0.29170954 0.05403268 -0.24565488
0.14954896 -0.13817476 0.347355 -0.16145325 0.25977948 0.1281482 -0.5375918 -0.15566523
-0.09598029 0.21204974 -0.32031888 0.16172376 0.08358697 0.4083362 -0.29130518 0.27732566
0.018963015 -0.45564517 -0.06811611 -0.5972851 -0.028108295 -0.17965199 0.2610434 0.15059564
-0.06847064 0.029301211 0.3058304 -0.062089298 -0.10336848 0.028185554 0.009655781 0.3478386
-0.2681149 -0.21599618 0.105923854 0.031316116 -0.22015741 -0.06315476 0.01178842 -0.22936527
-0.05250839 0.019234158 0.18638088 -0.15070741 -0.8462469 -0.1410822 -0.6147631 0.3596468
-0.29286256 -0.055171967 -0.3385848 0.37406197 -0.105202235 -0.25870836 0.3760558 -0.1247536
0.10332747 -0.40078953 -0.4460853 -0.08298324 0.10641688 -0.1361457 -0.14095835 -0.12319077
-0.28774223 0.03916075 -0.2768581 0.29994172 0.093351595 0.11016159 -0.08324394 0.21726239
-0.0052405125 -0.083658084 -0.22831768 0.37488404 0.17581028 0.04248828 0.13069373 0.09510817
0.067139566 -0.04873392 -0.08743047 0.11706787 -0.41074488 -0.23315245 0.11876053 0.22354326
0.17471151 -0.29914436 0.40188238 -0.21521859 0.12964442 0.07180703 0.0054246685 0.38620454

action_output.bias f4 [4]
00000000: 281d 0ebd 6071 4dbc 0a9c 773d 62c8 16bd
-0.034695774 -0.012539238 0.060451545 -0.036812194
